DenseNet/models/bn_params.npz (npz, 156840 bytes, 199 tensors)

dense_b2_l5_bn_var f4 [1, 24, 1, 1]
0.022308601 0.024860885 0.025147237 0.024126839 1.1603955e-22 0.02357457 0.018936623 0.023476906
0.028085833 0.02184388 0.01611904 0.02295756 0.020726986 0.020161387 0.02175736 0.026615316
0.021877667 0.01964364 0.015911097 0.026769258 0.022637151 6.726154e-23 0.019369395 0.022081446
00000000: 87c0 b63c 0ea9 cb3c 9401 ce3c a6a5 c53c
00000010: 8048 0c1b 751f c13c fa20 9b3c a452 c03c
00000020: 4314 e63c f0f1 b23c 140c 843c 7e11 bc3c
00000030: a4cb a93c 7e29 a53c 7e3c b23c 5d08 da3c
00000040: cb38 b33c b3eb a03c fd57 823c 344b db3c
00000050: 8c71 b93c e0a0 a21a 91ac 9e3c 26e4 b43c

dense_B_b0_l14_bn_mean f4 [1, 96, 1, 1]
-1.3924958e-10 -5.7702914e-12 0.011981906 0.061073683 0.040343948 0.05067598 -0.020401131 -0.005596279
0.060492925 0.025788542 5.8451355e-06 -5.4708845e-11 9.4756736e-14 1.9981043e-11 0.037062567 0.013870394
-0.018626913 0.01735315 -0.016561452 -0.004380714 -0.05993195 0.03947723 -0.040909458 -0.011660803
0.075861655 0.034765903 -9.708919e-12 0.03441748 -0.069261864 -1.2102334e-11 0.08657291 -9.168207e-09
-0.0105865095 -0.05199344 0.031091545 0.03236629 -0.006502698 0.05893734 0.016505118 0.06651688
0.031463034 3.1311885e-12 0.033092152 0.038304526 -0.10582241 -0.013408937 -0.01632187 0.039852794
0.019135019 -0.063504875 -0.031514693 -0.038202737 0.022905191 1.5329012e-12 1.2421712e-11 0.030442148
-6.336671e-12 0.016663391 -0.007484739 -0.0031141413 0.057426088 -0.042317137 5.767296e-06 0.025820049
0.059658978 1.470824e-11 -0.030222924 6.344425e-09 -0.040794127 0.023677625 0.032810878 3.8858923e-11
-0.08422788 -0.06514383 -0.08275583 -0.013932148 -0.07933933 0.058358714 0.012145191 0.07456788
-1.3966491e-11 -0.0072554247 0.028854543 0.076208346 0.005322525 0.033374246 -0.08031143 -0.05125044
0.030800926 0.03722379 5.353281e-12 -3.1089224e-12 0.06180642 0.07769644 1.8414008e-11 3.971941e-07
00000000: 461b 19af 2a06 cbac c24f 443c 6628 7a3d
00000010: b23f 253d 9e91 4f3d 4620 a7bc fe60 b7bb
00000020: 6ec7 773d 7e42 d33c 5521 c436 af9c 70ae
00000030: 8a5f d529 4fc1 af2d ebce 173d a640 633c
00000040: 7897 98bc 3128 8e3c e2ab 87bc 188c 8fbb
00000050: 347b 75bd e0b2 213d ad90 27bd f40c 3fbc
00000060: 5b5d 9b3d b166 0e3d 16cd 2aad 58f9 0c3d
00000070: 2ad9 8dbd 11e8 54ad 234d b13d 3382 1db2
00000080: 0a73 2dbc 13f7 54bd b2b3 fe3c 8492 043d
00000090: 9614 d5bb 4868 713d be35 873c 013a 883d
000000a0: 62df 003d 7a56 5c2c a38b 073d 35e5 1c3d
000000b0: 6bb9 d8bd 28b1 5bbc 71b5 85bc af3c 233d
000000c0: 0bc1 9c3c d80e 82bd 8d15 01bd 797a 1cbd
000000d0: aba3 bb3c 96bc d72b 6b86 5a2d d061 f93c
000000e0: a9f3 deac aa81 883c 8b42 f5bb 9f16 4cbb
000000f0: 9e37 6b3d bc54 2dbd b284 c136 9184 d33c
00000100: f95c 743d 0360 812d 1196 f7bc 27fe d931
00000110: be17 27bd 94f7 c13c b364 063d 42e7 2a2e
00000120: ab7f acbd 216a 85bd e37b a9bd aa43 64bc
00000130: a97c a2bd 8c09 6f3d a0fc 463c 0bb7 983d
00000140: 7cb3 75ad eabe edbb 5d60 ec3c 1f13 9c3d
00000150: 9368 ae3b 6fb3 083d 527a a4bd fbeb 51bd
00000160: 3952 fc3c f977 183d 125a bc2c 5ec5 5aac
00000170: bb28 7d3d 501f 9f3d a9f8 a12d f13d d534

dense_B_b1_l1_bn_var f4 [1, 96, 1, 1]
0.00067758 0.0022816225 2.34495e-22 0.0036258597 0.0014886609 0.0011255493 0.0028681483 0.001233774
0.0025039662 3.200486e-23 0.0011064747 0.0023159767 0.00195102 0.0038904438 0.002416392 0.002197258
0.0019842514 0.0023823378 0.0033506202 0.001918401 0.003492002 1.5937287e-22 0.001275674 0.0021836862
1.3392329e-22 0.0023304499 0.0030422206 0.0021118612 0.0013225978 0.0027081904 0.0021526965 0.0029467077
0.0021072086 0.0019441955 0.0031493448 0.0023934445 5.582532e-23 0.002264445 0.0013696041 0.0022824593
1.7533519e-22 2.3458202e-23 0.0031606057 0.0019779492 0.0026482302 0.0029620836 6.090726e-23 0.0020235067
9.122689e-23 0.002295512 0.0034898727 0.0027288115 0.002361717 0.0037353905 0.0025428862 0.00077020185
0.003356935 0.0019128144 0.0029180194 3.3507186e-23 0.002328869 0.002413128 0.0017967164 0.0019573346
0.001525146 0.0021054023 0.0033967493 0.0024576674 0.0028803067 3.340353e-23 0.0037257618 0.0032809563
0.003108278 0.0020014765 0.0010506447 0.003988548 0.0017903681 0.0030992883 0.0016231585 0.0017278063
0.0033572484 2.0912978e-22 0.0010666006 0.0015358864 1.3979807e-21 0.0021151672 0.0025739358 3.1679468e-23
0.003378793 0.0027776186 0.0025151174 0.004805621 0.0036573608 0.0033757584 0.0028420854 0.0015831251
00000000: a09f 313a 4687 153b 58be 8d1b d59f 6d3b
00000010: 2c1f c33a 2b87 933a 8bf7 3b3b 96b6 a13a
00000020: 9519 243b 19c4 1a1a 2107 913a a4c7 173b
00000030: 5eb9 ff3a d1f6 7e3b 555c 1e3b dfff 0f3b
00000040: 370a 023b ff20 1c3b 1496 5b3b db72 fb3a
00000050: 12da 643b 84ab 401b 8434 a73a 2d1c 0f3b
00000060: 40e7 211b 76ba 183b fe5f 473b 2767 0a3b
00000070: 055b ad3a e57b 313b 4114 0d3b 8d1d 413b
00000080: 1819 0a3b 60d4 fe3a 3d65 4e3b 56db 1c3b
00000090: 33fa 861a 1567 143b 4a84 b33a 5095 153b
000000a0: 9df7 531b b2df e219 2a22 4f3b 7ba0 013b
000000b0: ee8d 2d3b 841f 423b c543 931a cf9c 043b
000000c0: b692 dc1a 4d70 163b 59b6 643b dcd5 323b
000000d0: 09c7 1a3b 74cd 743b 8da6 263b 5fe7 493a
000000e0: 0600 5c3b 67b7 fa3a 3e3c 3f3b e307 221a
000000f0: f09f 183b 9225 1e3b cc7f eb3a a046 003b
00000100: 68e7 c73a cafa 093b ff9b 5e3b d110 213b
00000110: 87c3 3c3b 9187 211a e92b 743b 5005 573b
00000120: 40b4 4b3b 342b 033b c9b5 893a 5eb2 823b
00000130: c9aa ea3a 6e1d 4b3b 29c0 d43a 8f77 e23a
00000140: 4805 5c3b 88d2 7c1b 2dcd 8b3a cc4f c93a
00000150: c241 d31c 9e9e 0a3b 7aaf 283b 4831 191a
00000160: bd6e 5d3b b508 363b abd4 243b 7978 9d3b
00000170: 55b0 6f3b d43b 5d3b 4842 3a3b dd80 cf3a

dense_B_b2_l15_bn_var f4 [1, 96, 1, 1]
0.22140501 0.14431012 0.13554503 0.08883626 0.17882453 0.13515188 0.11686507 0.10004661
0.08046644 0.20428498 0.15136479 0.109916046 0.18141897 0.11583268 0.124277994 0.1361377
0.10239519 0.14156601 0.10199017 0.11832422 0.141148 0.12612787 0.12021607 0.14740306
0.12783168 0.14964698 0.0986298 0.18776637 1.1529006e-21 0.1439256 8.187114e-22 0.14802499
0.111189894 0.13676512 0.17167978 0.093692034 7.6922304e-22 0.0840315 0.16582347 0.15731321
0.15031193 0.12938246 0.2158937 0.088949256 0.13132787 0.18757065 0.09398077 0.09027391
0.12912975 0.13455337 0.18750435 0.14166339 0.15833129 9.190739e-22 0.0984031 0.11397133
0.13932683 0.19970828 0.16118518 0.15240692 0.11873189 0.1022023 0.13169317 0.076850496
0.10196116 0.10909079 0.1568275 0.13968806 0.12424257 0.114223026 0.14882882 0.14955124
0.123180285 0.1356647 0.103642195 0.260623 0.13517812 0.08741829 0.1629019 0.19225249
1.3047475e-21 0.14385228 0.15553251 8.3375317e-22 0.21278903 0.15665399 7.8645903e-22 6.643159e-22
0.12396589 0.22244577 0.16764477 0.11194311 0.10601767 0.104290664 0.13362847 0.13489501
00000000: ffb7 623e 08c6 133e 51cc 0a3e c9ef b53d
00000010: c71d 373e 4165 0a3e f456 ef3d 3de5 cc3d
00000020: 97cb a43d 1530 513e 5fff 1a3e aa1b e13d
00000030: e5c5 393e af39 ed3d 7685 fe3d ae67 0b3e
00000040: 92b4 d13d aef6 103e 39e0 d03d f853 f23d
00000050: 1a89 103e aa27 013e d833 f63d d4f0 163e
00000060: 4fe6 023e 0f3d 193e 6cfe c93d d445 403e
00000070: af38 ae1c 3c61 133e ba70 771c dd93 173e
00000080: 87b7 e33d 280c 0c3e d3cc 2f3e 9ce1 bf3d
00000090: c07b 681c b518 ac3d a1cd 293e b716 213e
000000a0: 5feb 193e d67c 043e 3d13 5d3e 072b b63d
000000b0: d07a 063e 8512 403e fd78 c03d 87e1 b83d
000000c0: 973a 043e 5cc8 093e 2401 403e 3510 113e
000000d0: 9921 223e f3e2 8a1c 9187 c93d cd69 e93d
000000e0: b1ab 0e3e 5480 4c3e ba0d 253e 8f10 1c3e
000000f0: b529 f33d 714f d13d 93da 063e cb63 9d3d
00000100: 03d1 d03d fe6a df3d 6397 203e 630a 0f3e
00000110: e372 fe3d c3ed e93d 9566 183e f623 193e
00000120: f245 fc3d b0eb 0a3e 5c42 d43d 6170 853e
00000130: 226c 0a3e 5c08 b33d c1cf 263e d6dd 443e
00000140: f92a c51c 034e 133e ea43 1f3e 87fc 7b1c
00000150: 5ee5 593e e769 203e 52b1 6d1c f4c6 481c
00000160: d4e1 fd3d d3c8 633e 12ab 2b3e 6e42 e53d
00000170: cb1f d93d 5896 d53d e7d5 083e eb21 0a3e

dense_B_b1_l4_bn_var f4 [1, 96, 1, 1]
5.433212e-23 3.716807e-17 0.0020240627 0.003264563 0.0052428646 0.0026941027 0.0033740737 0.002669206
0.0036312377 0.0040126266 0.0036029783 0.0019746458 5.440621e-23 3.6933518e-23 0.001185279 0.002994006
1.4692329e-10 0.0024165097 0.00211565 0.0049025575 0.001954728 1.296392e-22 0.0023804335 0.0037437915
0.0028787586 0.0029065837 4.9066716e-23 3.950674e-23 4.0658427e-23 0.0030738837 0.006174601 0.0043833205
0.0038827532 0.004345957 0.003632079 6.090493e-23 0.0042810203 0.0028997494 0.0020650525 3.8333197e-23
0.0031502408 0.0029405009 0.001812958 0.006192742 4.5176247e-23 0.003014277 0.005057784 0.004149606
3.6860125e-23 0.002644603 0.002835058 0.0015713 0.0020671666 0.005036727 3.4212673e-23 0.0029287436
0.003401976 0.004505761 4.4322955e-23 0.0025982403 0.001304594 0.003187632 3.411504e-23 0.0030935062
0.003751975 0.0029808145 0.004422823 0.004510287 0.00543999 4.1727025e-23 0.0026411708 0.0017732946
0.003818613 0.0051024794 0.0037664217 0.003188594 0.004711589 0.0028131409 0.0032646344 0.0046952856
0.003409438 0.0032104368 0.0019345705 0.002327139 0.0059803016 0.004465277 0.0026602687 0.0022585415
8.132514e-23 0.0036245505 0.0025025825 0.003737148 0.0036026656 0.0047678635 0.0020648802 0.0032375692
00000000: f45d 831a 5068 2b24 23a6 043b 47f2 553b
00000010: 56cc ab3b 8b8f 303b 901f 5d3b d8ed 2e3b
00000020: 0ffa 6d3b 5a7c 833b f21f 6c3b 0f69 013b
00000030: d08b 831a 7b99 321a 5d5b 9b3a 1637 443b
00000040: 3b8b 212f 4e5e 1e3b b8a6 0a3b a2a5 a03b
00000050: e51a 003b 64b9 1c1b 0c01 1c3b 665a 753b
00000060: 8ea9 3c3b 627c 3e3b a745 6d1a fa0a 3f1a
00000070: b29c 441a 3673 493b 4f54 ca3b f5a1 8f3b
00000080: ca75 7e3b 8868 8e3b 2d08 6e3b 5342 931a
00000090: cd47 8c3b b909 3e3b d555 073b 335e 391a
000000a0: 4574 4e3b 6bb5 403b c7a0 ed3a 7cec ca3b
000000b0: 7c75 5a1a 2d8b 453b c4bb a53b 6bf9 873b
000000c0: a03e 321a 1351 2d3b 61cc 393b 14f4 cd3a
000000d0: 4d79 073b 210b a53b 3d71 251a 2af0 3f3b
000000e0: b0f3 5e3b 10a5 933b 2955 561a 3d47 2a3b
000000f0: e9fe aa3a 97e7 503b 60f8 241a 6cbc 4a3b
00000100: b2e3 753b c559 433b 54ed 903b 08cb 933b
00000110: f241 b23b 8ec7 491a 7e17 2d3b e56d e83a
00000120: b241 7a3b b332 a73b 12d6 763b bbf7 503b
00000130: ac63 9a3b ac5c 383b 7af3 553b e9da 993b
00000140: e170 5f3b 3166 523b 6a91 fd3a ea82 183b
00000150: 68f6 c33b 7551 923b e757 2e3b 0a04 143b
00000160: d3a1 c41a de89 6d3b 5e02 243b f0ea 743b
00000170: b31a 6c3b bd3b 9c3b f152 073b 662d 543b

dense_b1_l7_bn_mean f4 [1, 24, 1, 1]
-0.2327939 -0.06250978 2.0188887e-12 -0.047594108 -0.16284396 -0.15196621 0.15509838 -0.009703954
-0.005969434 0.05951888 -0.045795564 0.015744733 -0.14047858 -0.10847673 -0.097239114 0.073077224
0.009345837 0.025399024 0.08425305 -0.09626259 0.02965879 -0.020352395 0.0676454 -0.17785068
00000000: 8661 6ebe 2105 80bd 1111 0e2c 0af2 42bd
00000010: 91c0 26be 089d 1bbe 1cd2 1e3e 55fd 1ebc
00000020: 3e9b c3bb 12ca 733d 2194 3bbd 19fb 803c
00000030: 9ed9 0fbe 0c29 debd 4d25 c7bd 83a9 953d
00000040: 481f 193c 9d11 d03c dd8c ac3d 5225 c5bd
00000050: fef6 f23c 11ba a6bc ac89 8a3d 7d1e 36be

dense_b1_l13_bn_var f4 [1, 24, 1, 1]
0.01671149 0.020445503 0.028484127 5.5292214e-23 6.999278e-23 0.025533147 0.021427806 0.022735463
0.017970659 0.017573806 0.014631003 0.026115244 0.024259284 1.2669654e-22 0.019094802 0.018620823
0.022553539 0.016833251 0.018100148 0.023959866 0.028243773 0.011518578 0.019914884 0.019840116
00000000: 89e6 883c 547d a73c 8b57 e93c 39b0 851a
00000010: 6f3b a91a e42a d13c 5e89 af3c b93f ba3c
00000020: 3437 933c f1f6 8f3c e0b6 6f3c a3ef d53c
00000030: 68bb c63c ae2a 191b b46c 9c3c b28a 983c
00000040: 33c2 b83c e3e5 893c c346 943c 7b47 c43c
00000050: 7c5f e73c 6bb8 3c3c 8a24 a33c bd87 a23c

dense_B_b2_l4_bn_var f4 [1, 96, 1, 1]
0.055992953 0.07764978 0.04985254 0.07523028 0.060997646 0.067449465 0.061292008 0.056927577
0.057584375 0.055929475 0.06916187 0.058734242 0.05286836 0.09952645 0.043030642 0.059676085
0.057882003 0.064188585 0.002746686 0.08350553 0.027259108 5.6040083e-22 0.03966165 0.08125282
0.051258583 0.07378962 0.066363424 0.068427876 0.066293865 0.052502707 0.049950298 0.05327776
0.098839805 4.1358806e-22 0.063477896 0.07771678 0.091065146 5.98382e-22 0.09722907 0.025214054
0.051309712 0.065401785 4.7228883e-22 0.068505116 0.07204475 0.04679201 0.06593637 0.04176734
0.06408024 5.185282e-22 0.10462236 0.032580283 0.05720199 0.03906544 0.08065442 0.076569214
0.05699667 0.05151278 0.0802712 0.03409085 0.041137755 0.05217413 0.04154231 0.091008626
0.0642794 0.07808169 0.08828727 5.8723164e-22 6.3150267e-22 0.096087046 0.06416674 0.09673234
0.070710324 0.070160806 0.119773395 0.053902164 4.2396434e-22 0.05930075 0.049885035 2.0806329e-21
0.09063601 5.5661485e-22 0.07731787 0.09671002 0.09990787 0.047918536 0.09137771 0.06746375
0.04943146 0.021904899 0.10801567 0.090035796 0.067414336 0.048005525 0.0649339 0.049904507
00000000: de58 653d d906 9f3d 2d32 4c3d 5512 9a3d
00000010: abd8 793d f222 8a3d 540d 7b3d e42c 693d
00000020: 98dd 6b3d 4e16 653d bda4 8d3d 5193 703d
00000030: 7e8c 583d 86d4 cb3d e640 303d e96e 743d
00000040: ae15 6d3d 4e75 833d bf01 343b f304 ab3d
00000050: 7e4e df3c ea5e 291c 4174 223d e167 a63d
00000060: 85f4 513d 031f 973d 8ce9 873d ea23 8c3d
00000070: 14c5 873d 140d 573d af98 4c3d c839 5a3d
00000080: 866c ca3d a7ff f91b b300 823d fa29 9f3d
00000090: 5d80 ba3d 91d9 341c 0920 c73d b48d ce3c
000000a0: 222a 523d 5ff1 853d 94bd 0e1c 694c 8c3d
000000b0: 338c 933d fba8 3f3d a609 873d 3b14 2b3d
000000c0: 803c 833d 2db7 1c1c 3f44 d63d e772 053d
000000d0: a24c 6a3d 1503 203d 252e a53d 52d0 9c3d
000000e0: 5775 693d 11ff 523d 3a65 a43d d9a2 0b3d
000000f0: 1080 283d 8ab4 553d 4528 2a3d bb62 ba3d
00000100: eba4 833d 4be9 9f3d f5cf b43d d97a 311c
00000110: 27dc 3e1c 49c9 c43d da69 833d 9b1b c63d
00000120: 93d0 903d 78b0 8f3d c14b f53d 84c8 5c3d
00000130: a722 001c 58e5 723d 4054 4c3d 4b35 1d1d
00000140: 5f9f b93d fd39 281c d558 9e3d e70f c63d
00000150: 7f9c cc3d 3a46 443d 3d24 bb3d 6f2a 8a3d
00000160: a578 4a3d e771 b33c 5237 dd3d b064 b83d
00000170: 8710 8a3d 71a1 443d 11fc 843d ab68 4c3d

dense_B_b1_l8_bn_var f4 [1, 96, 1, 1]
5.492051e-23 0.0046691503 0.0065264297 0.0027194754 0.008079409 0.005719667 0.0028871521 0.0029246975
0.0076894388 0.004772825 5.6111215e-23 0.0026795953 0.0064562676 0.0046021305 1.5985299e-06 0.0061376276
0.00360249 0.003942648 0.005554113 0.006110466 0.0013824238 0.0035243612 0.0034494968 0.0061592893
0.0037687372 0.00551245 0.0036239962 0.005247627 0.0040068463 3.8523543e-23 0.0044273613 0.0040499438
0.0077806828 0.0066473694 1.1258283e-22 0.008880206 0.003234211 0.0033274144 6.6973773e-23 0.0042733317
0.0031234634 0.0046132416 2.391149e-22 4.4640692e-23 0.002312623 0.008006102 0.004456118 0.00563943
0.006865596 0.007253706 0.0047431285 0.0029828986 0.006332358 0.0053415336 0.008029417 0.007283954
0.0054673753 0.0066105686 0.0070777074 0.00971088 0.010158775 0.0064288005 0.00377156 0.0046841823
7.8733026e-23 0.0027393422 0.006072198 0.005813107 0.0040074303 0.00847725 0.0030616033 0.0063117933
0.009742694 0.005113566 0.00477954 0.004802272 0.004271775 0.0038941568 0.008419462 0.0040483586
0.004579577 0.0065824436 0.0058646095 4.97505e-23 0.0025443998 0.0056378823 0.005045152 0.0034475082
0.0040121824 0.0075779962 0.005647833 0.004929252 0.0044927537 0.0021781437 0.0068434966 0.0017561081
00000000: 26ca 841a acff 983b a9db d53b 3a39 323b
00000010: 7f5f 043c 0b6c bb3b 6036 3d3b 48ac 3f3b
00000020: b0f7 fb3b 5c65 9c3b 29ab 871a 269c 2f3b
00000030: 198f d33b 78cd 963b 128d d635 271e c93b
00000040: c117 6c3b 5431 813b 47ff b53b 4e3a c83b
00000050: 7232 b53a f8f8 663b f410 623b ddd3 c93b
00000060: ebfc 763b c8a1 b43b 9180 6d3b 49f4 ab3b
00000070: dd4b 833b d649 3a1a 6613 913b 64b5 843b
00000080: 19f5 fe3b 2dd2 d93b b31a 081b 497e 113c
00000090: 0ef5 533b c010 5a3b c2ee a11a 4e07 8c3b
000000a0: 05b3 4c3b ad2a 973b 3d89 901b 80de 571a
000000b0: 608f 173b 072c 033c a104 923b f8ca b83b
000000c0: cbf8 e03b 7fb0 ed3b 3f6c 9b3b bc7c 433b
000000d0: ab7f cf3b 0808 af3b d18d 033c 3cae ee3b
000000e0: ab27 b33b 789d d83b 1dec e73b 621a 1f3c
000000f0: fe70 263c b0a8 d23b 472c 773b c57d 993b
00000100: 625d be1a 8986 333b 4af9 c63b e07b be3b
00000110: c350 833b 2ae4 0a3c 2ea5 483b 29d3 ce3b
00000120: d29f 1f3c b38f a73b b09d 9c3b 615c 9d3b
00000130: 3ffa 8b3b 1c35 7f3b c8f1 093c 18a8 843b
00000140: 4710 963b 8ab1 d73b e92b c03b 2394 701a
00000150: f2bf 263b fcbd b83b cd51 a53b 97ef 613b
00000160: a078 833b d750 f83b 7511 b93b 9085 a13b
00000170: f337 933b 30bf 0e3b 693f e03b 362d e63a

dense_B_b0_l15_bn_var f4 [1, 96, 1, 1]
0.012454871 0.015839918 0.008615506 0.008442871 1.2255106e-22 0.0060776398 0.004890214 0.008391671
0.0027574115 0.010026235 1.8038448e-22 0.010715577 0.0072766896 0.010005346 2.1455204e-22 4.795069e-11
3.7670423e-22 0.008878805 0.016069172 0.005262853 7.2721363e-23 9.178836e-23 8.091955e-23 0.007307349
0.0086787 0.01848256 0.011495295 0.0029938612 1.4096046e-22 0.010520719 0.0072619426 0.006529761
1.2690091e-22 0.0059073516 0.005833988 0.0063395677 0.011956932 0.010180787 0.005998955 1.1676532e-22
0.0060599446 0.008527118 0.008377963 0.0072966306 8.5481693e-23 0.008259277 0.007018653 0.00401606
0.0078108 5.7908173e-18 0.009491577 0.002727525 0.0067985808 0.0064857523 0.008170584 0.008916796
3.529484e-19 0.01013573 0.008419249 0.0001170663 1.5536342e-22 0.00672256 0.0073141307 0.0049491036
1.0372798e-22 2.8859075e-11 2.098284e-07 0.008709046 0.0062017622 0.0033391844 0.0028119262 0.009197415
0.0015156026 0.013295655 6.875761e-22 5.030916e-21 0.009064538 0.006831887 2.2180673e-22 0.009052474
0.0026589818 1.5570704e-22 0.0076100323 0.0002386385 0.006638279 0.007455402 0.0055970387 0.009209593
8.668468e-23 0.0052157906 0.008637506 0.016105516 0.006036747 1.3261614e-22 0.0056848037 0.007954174
00000000: 840f 4c3c b7c2 813c 0d28 0d3c f853 0a3c
00000010: b727 141b f026 c73b 173e a03b 387d 093c
00000020: b0b5 343b 1445 243c 4b12 5a1b 6390 2f3c
00000030: 4c71 ee3b 76ed 233c 52b0 811b ade3 522e
00000040: 28b4 e31b 6878 113c 7fa3 833c 0374 ac3b
00000050: 58d4 af1a 3eee dd1a c7a6 c31a 7c72 ef3b
00000060: 1b31 0e3c bd68 973c c356 3c3c a834 443b
00000070: 2669 2a1b 185f 2c3c 97f5 ed3b 9bf7 d53b
00000080: ee69 191b 7592 c13b 0a2b bf3b 26bc cf3b
00000090: 02e7 433c 51cd 263c e292 c43b 1e29 0d1b
000000a0: 8092 c63b 53b5 0b3c b943 093c 9318 ef3b
000000b0: 9bae ce1a eb51 073c bbfc e53b 2799 833b
000000c0: bdf1 ff3b b9a4 d522 8f82 1b3c 47c0 323b
000000d0: a1c6 de3b 6f86 d43b eadd 053c c117 123c
000000e0: 0e58 d020 5510 263c e4f0 093c 7e81 f538
000000f0: a6d2 3b1b ec48 dc3b 60ab ef3b 172c a23b
00000100: 83cc fa1a dcd8 fd2d 314d 6134 63b0 0e3c
00000110: 2738 cb3b 38d6 5a3b 4b48 383b c1b0 163c
00000120: 2fa7 c63a 05d6 593c a0ce 4f1c 0910 be1d
00000130: 6e83 143c 06de df3b ee12 861b d450 143c
00000140: 5042 2e3b ff3c 3c1b 945d f93b 093b 7a39
00000150: ec85 d93b 724c f43b 5d67 b73b d5e3 163c
00000160: 3897 d11a 39e9 aa3b 5384 0d3c b7ef 833c
00000170: e7cf c53b b552 201b 9747 ba3b 3952 023c

dense_b1_l4_bn_var f4 [1, 24, 1, 1]
0.03252098 0.033680942 0.030615747 0.014298403 0.05184361 0.021314776 0.013508283 1.2178004e-22
0.03061224 0.031048808 0.01580215 0.05246327 0.018883573 0.024415 0.024890436 0.020946926
0.043712642 0.03724154 0.04061854 0.035061046 0.03429126 0.02954797 0.022288406 0.03551346
00000000: b834 053d 07f5 093d e0cd fa3c d943 6a3c
00000010: f759 543d 539c ae3c d851 5d3c 1939 131b
00000020: 85c6 fa3c 125a fe3c 8373 813c bae3 563d
00000030: b9b1 9a3c f701 c83c 07e7 cb3c e398 ab3c
00000040: 070c 333d 968a 183d a05f 263d 2c9c 0f3d
00000050: fe74 0c3d 960e f23c 2d96 b63c 9076 113d

dense_B_b0_l9_bn_mean f4 [1, 96, 1, 1]
-0.07126956 6.3677843e-12 0.015316922 0.06386111 0.045444597 -0.07221581 0.034965266 -0.016046781
-0.028732993 -0.065993 -0.010477931 0.036485426 0.031140627 -0.084315725 0.024568474 -0.020366997
-0.005081206 0.028955448 -0.013442678 -0.014498245 -0.014237241 0.021057893 -0.041460633 -0.0136567475
0.034985084 -1.095092e-12 -0.03729217 -0.03374071 0.03740498 -0.0132858865 1.408264e-11 0.00747735
0.035658866 0.04625238 0.0483519 0.12808964 -0.006482422 -0.0076661827 8.225032e-12 -1.5940126e-05
0.006974405 -0.09757358 0.028626995 0.13621235 -0.09134772 -4.873367e-12 0.09346938 -0.003661374
-9.439193e-12 0.044436153 0.028375234 0.026831655 0.028442677 -0.010421443 -0.008651746 -0.045407325
-0.10749138 -0.061577767 0.06487314 -1.4305879e-11 0.0055489284 -0.07600715 -0.061051764 0.010563337
0.052673057 0.0059589725 -0.036925506 -0.011860844 0.0050722416 0.0646733 0.03304697 -0.054774616
-0.062110785 -0.050950233 0.04211375 -0.0107966615 0.053228498 -1.187995e-11 0.03168366 -0.08892775
2.2891909e-11 1.6362561e-12 -0.052461404 -0.012662293 -0.05433722 -0.03425693 4.639377e-14 -0.0365858
-0.009333486 0.007602266 0.026391486 0.07422069 0.028877353 -0.040301763 -3.1187882e-12 -0.11452282
00000000: c6f5 91bd e70b e02c d4f3 7a3c 9dc9 823d
00000010: 1d24 3a3d e2e5 93bd bd37 0f3d 8a74 83bc
00000020: 7461 ebbc 5727 87bd a1ab 2bbc be71 153d
00000030: a11a ff3c b9ad acbd d343 c93c b0d8 a6bc
00000040: 3f80 a6bb fa33 ed3c ae3e 5cbc 0c8a 6dbc
00000050: 5143 69bc 9a81 ac3c a0d2 29bd 8dc0 5fbc
00000060: 854c 0f3d d91e 9aab adbf 18bd b333 0abd
00000070: f735 193d 0cad 59bc 92be 772d 8f04 f53b
00000080: 080f 123d 2373 3d3d a40c 463d ee29 033e
00000090: 7f6a d4bb 9a34 fbbb 40b2 102d 29b7 85b7
000000a0: 8d89 e43b a8d4 c7bd 2983 ea3c 407b 0b3e
000000b0: 8314 bbbd 6377 abac e06c bf3d aaf3 6fbb
000000c0: 590e 26ad af02 363d 2e73 e83c 0fce db3c
000000d0: 9e00 e93c b3be 2abc 0ec0 0dbc 08fd 39bd
000000e0: 7124 dcbd f838 7cbd 35dc 843d f4ab 7bad
000000f0: c9d3 b53b a3a9 9bbd 6a11 7abd d911 2d3c
00000100: b4bf 573d 7c43 c33b 333f 17bd fc53 42bc
00000110: 0c35 a63b 6f73 843d 425c 073d 595b 60bd
00000120: e167 7ebd 31b1 50bd 787f 2c3d 7be4 30bc
00000130: 2006 5a3d 8afe 50ad bac6 013d c11f b6bd
00000140: ff5b c92d 5748 e62b c5e1 56bd 8275 4fbc
00000150: b490 5ebd ff50 0cbd 60f0 5029 feda 15bd
00000160: 7aeb 18bc 6e1c f93b f532 d83c 0401 983d
00000170: 3390 ec3c 7613 25bd 1877 5bac f18a eabd

dense_b1_l3_bn_mean f4 [1, 24, 1, 1]
0.05702254 0.059131537 0.2964434 -0.28561637 0.010098678 -0.09863733 -0.0012823836 -0.33520582
0.21840072 -0.30598214 -0.110855 -1.0838975e-11 -0.08149118 0.26018634 0.082836986 -0.109773256
-0.18048045 -0.30673942 -0.070773445 0.014195859 0.13921778 -0.172198 0.090543576 0.0855537
00000000: 7890 693d e933 723d 6ec7 973e 4f3c 92be
00000010: ed74 253c 5e02 cabd a715 a8ba 19a0 abbe
00000020: 70a4 5f3e b1a9 9cbe f207 e3bd 67ae 3ead
00000030: d9e4 a6bd 2537 853e 70a6 a93d cdd0 e0bd
00000040: decf 38be f30c 9dbe abf1 90bd c095 683c
00000050: 1b8f 0e3e ac54 30be e96e b93d c736 af3d

dense_b0_l13_bn_mean f4 [1, 24, 1, 1]
0.08856007 3.6627407e-12 -0.049563076 0.03929877 0.0763183 -0.007357442 -8.003782e-12 0.03389542
0.11255238 0.09761663 0.07320388 -0.042858563 0.049858827 0.038492065 -0.068456605 0.07711864
-0.05616405 0.114758454 0.106988624 -0.067060456 -0.06553268 -0.02031313 0.12808478 0.14028685
00000000: fb5e b53d 09df 802c a702 4bbd bff7 203d
00000010: c54c 9c3d b216 f1bb d4cd 0cad edd5 0a3d
00000020: dd81 e63d 3aeb c73d eaeb 953d 768c 2fbd
00000030: c538 4c3d dba9 1d3d fa32 8cbd 61f0 9d3d
00000040: 460c 66bd 7b06 eb3d da1c db3d fe56 89bd
00000050: ff35 86bd b967 a6bc a828 033e 5ba7 0f3e

dense_B_b0_l6_bn_mean f4 [1, 96, 1, 1]
0.035198882 -0.013001107 0.00172574 0.0069891685 -0.03118325 1.4726644e-12 -0.09624482 1.0957894e-12
0.1275525 -0.083415344 0.030037511 -0.10630465 0.06390489 -0.06264078 -0.010135661 -0.005974555
0.06375384 -1.6274173e-11 0.008690061 0.0063570477 -5.8241892e-12 0.09419374 0.13565028 -0.12715565
-0.10807513 0.008254412 0.05834748 0.0544064 0.12291406 0.005918956 -0.021605816 0.004759145
0.054554373 -0.07027195 -0.09647796 -0.060129855 -0.04840946 -1.5599655e-11 -0.0036902074 1.3262704e-09
0.021346342 -7.1421744e-12 -0.034457855 -0.020012017 -1.0728878e-11 4.987257e-12 1.2664164e-09 0.017440738
0.008299881 -0.037116535 -0.0014204078 0.120132074 0.046597958 0.08114495 -0.03912811 3.1711883e-10
-0.034846894 -0.05805905 -0.0061631794 0.0281368 -0.107200004 3.5871212e-11 0.00042278916 0.03380154
5.6240117e-12 0.011359996 0.039947223 -0.039951533 -0.1047903 0.057779424 0.038925406 -0.034601055
0.050822794 0.0677351 -3.2812383e-12 0.05052823 1.6946807e-08 -0.06317139 -0.021698667 -0.07157243
-0.028961897 0.05212997 -0.009109768 -0.026758546 -0.0057297135 0.09686595 0.033357915 -3.2116292e-11
-0.07729785 -1.5665007e-11 1.9626273e-11 0.011452776 -0.09144102 0.027116168 -0.065219805 -1.4371506e-06
00000000: b42c 103d 9802 55bc 3a32 e23a 6505 e53b
00000010: 0474 ffbc 5442 cf2b 011c c5bd f937 9a2b
00000020: 1f9d 023e aad5 aabd 3a11 f63c 41b6 d9bd
00000030: 91e0 823d cf49 80bd 0b10 26bc 33c6 c3bb
00000040: 6091 823d 2e26 8fad c260 0e3c c84e d03b
00000050: a2eb ccac a6e8 c03d e8e7 0a3e 1735 02be
00000060: 7e56 ddbd 833d 073c c4fd 6e3d 3fd9 5e3d
00000070: 5eba fb3d cdf3 c13b aefe b0bc 9af2 9b3b
00000080: 6874 5f3d bdea 8fbd 3d96 c5bd b94a 76bd
00000090: ff48 46bd 4d37 89ad 68d7 71bb fe47 b630
000000a0: 86de ae3c fd4a fbac ae23 0dbd 3ef0 a3bc
000000b0: 92be 3cad 3879 af2c 110e ae30 e1df 8e3c
000000c0: 39fc 073c 8207 18bd fa2c baba ce07 f63d
000000d0: 80dd 3e3d 532f a63d cc44 20bd 8256 ae2f
000000e0: 9ebb 0ebd 54cf 6dbd 7ff4 c9bb 257f e63c
000000f0: ad8b dbbd 65c3 1d2e cda9 dd39 7c73 0a3d
00000100: 98e0 c52c 471f 3a3c b39f 233d 38a4 23bd
00000110: 4c9c d6bd 1eaa 6c3d 3f70 1f3d d6b9 0dbd
00000120: 902b 503d b3b8 8a3d 89e5 66ac b0f6 4e3d
00000130: 6c92 9132 0060 81bd 67c1 b1bc 9194 92bd
00000140: 8041 edbc 3c86 553d 2341 15bc bd34 dbbc
00000150: 52c0 bbbb a861 c63d 4fa2 083d bb3f 0dae
00000160: 564e 9ebd 76ca 89ad 70a2 ac2d 6da4 3b3c
00000170: 6e45 bbbd ba22 de3c f691 85bd 1ee4 c0b5

dense_b0_l12_bn_var f4 [1, 24, 1, 1]
0.041619807 0.01090966 0.01850585 0.022129804 0.010877751 0.019802364 0.017863855 0.028162224
0.017774737 0.011339884 0.016033286 0.02496763 0.0221781 0.019754386 0.03467268 0.027784003
0.014905652 0.053403042 0.020856261 0.018070353 0.0151459845 0.017048411 0.0122845415 0.012653434
00000000: 8879 2a3d 6ebe 323c 9599 973c 9049 b53c
00000010: 9838 323c 9138 a23c 3857 923c 77b4 e63c
00000020: 539c 913c ecca 393c 3d58 833c ea88 cc3c
00000030: d9ae b53c f3d3 a13c f104 0e3d 479b e33c
00000040: d636 743c 26bd 5a3d c0da aa3c 4708 943c
00000050: dd26 783c 1ca9 8b3c 1a45 493c 5950 4f3c

dense_B_b0_l0_bn_var f4 [1, 96, 1, 1]
0.0031295246 3.4914345e-05 0.004496214 7.969913e-23 0.0028832243 0.0019422194 3.763575e-19 0.0022340603
0.0021648393 0.003045439 0.0016700677 0.002538054 0.0011946581 0.0016430315 0.0012416326 0.0012067757
0.0031634367 0.0018484499 0.0024167623 0.0022474919 0.001402363 7.911464e-23 0.0019899085 6.1421513e-22
0.0009982933 0.0018206532 0.0013417596 0.0042252727 0.0028899226 0.002821046 0.0021159246 0.002358938
0.0015627324 0.002764292 0.0026847555 0.002743316 0.0019772542 0.004483115 0.0026331616 8.0888717e-22
0.0025093523 0.0029192844 0.0007677719 0.002540009 0.0013346921 4.5210067e-23 0.0007998554 0.0017359131
0.0012736527 4.8304052e-23 0.0030423538 1.7538648e-10 0.0028458824 0.0012966144 3.4689357e-23 8.1795e-23
0.0025759053 0.0027211607 0.0025347073 0.0016357151 0.0029805927 0.0010737808 0.0043049194 0.0012136035
0.0027390108 3.8805e-23 0.0017899878 4.923696e-10 0.002060892 0.004077384 7.6472814e-23 0.0007514247
0.00089270005 0.0024642434 0.0015120056 0.003667687 0.0019514707 0.0034091272 0.0012802493 0.0022648962
0.0025061748 0.002070864 0.0025459155 3.220225e-23 0.0024931447 0.002034548 0.001805179 0.00085054466
8.138153e-23 0.0015205021 0.005848095 7.301063e-23 0.0055094687 0.0014080404 0.0012479974 0.002064595
00000000: b618 4d3b fe70 1238 fa54 933b 5fb3 c01a
00000010: 7af4 3c3b 1292 fe3a 8a29 de20 5069 123b
00000020: fadf 0d3b fd95 473b 2ce6 da3a 7b55 263b
00000030: 1396 9c3a fd5a d73a 47be a23a ac2c 9e3a
00000040: a951 4f3b b047 f23a 8b62 1e3b a84a 133b
00000050: 7ecf b73a 9749 bf1a 2069 023b 98a2 391c
00000060: 2ad9 823a fca2 ee3a fbdd af3a 2874 8a3b
00000070: db64 3d3b 4ce1 383b 53ab 0a3b 6a98 1a3b
00000080: 99d4 cc3a 2029 353b b9f2 2f3b 35c9 333b
00000090: d294 013b 18e7 923b 1f91 2c3b 9d78 741c
000000a0: f273 243b 7751 3f3b 4d44 493a 4876 263b
000000b0: d6f0 ae3a 5a9f 5a1a 63ad 513a 9487 e33a
000000c0: b1f0 a63a 8595 691a 3a62 473b e8d6 402f
000000d0: fc81 3a3b 29f3 a93a 58bf 271a a7c4 c51a
000000e0: 85d0 283b 8055 323b 551d 263b 7e65 d63a
000000f0: 0c56 433b 1bbe 8c3a 4810 8d3b c711 9f3a
00000100: fa80 333b 43a6 3b1a 069e ea3a 6e57 0730
00000110: 0810 073b 939b 853b 61e6 b81a 42fb 443a
00000120: 1604 6a3a 257f 213b 7d2e c63a 945d 703b
00000130: 7ec8 ff3a aa6b 5f3b 0ace a73a a76e 143b
00000140: a33e 243b 55b7 073b 60d9 263b 74b8 1b1a
00000150: 0764 233b 0d56 053b c29b ec3a 16f7 5e3a
00000160: bac4 c41a 964b c73a 60a1 bf3b 6487 b01a
00000170: c688 b43b ff8d b83a d893 a33a 284e 073b

dense_B_b2_l10_bn_mean f4 [1, 96, 1, 1]
0.12787858 0.084936775 -0.083171725 0.24847056 0.45632705 -0.37719434 0.10927561 0.009169795
-0.113876425 -0.056895133 0.36687595 0.123861976 0.19596952 -0.3840869 -0.31006914 -0.14710963
0.16098331 0.2721397 4.6433695e-12 0.19357808 -0.07222982 -0.1444409 -0.5804737 1.5313783e-11
-0.115471706 -0.19045597 -0.15841669 -0.1690058 0.07534749 0.063633785 0.17939378 -0.30526942
-0.22353366 -0.35600558 0.3619903 -0.18481682 6.5180175e-12 -0.20553215 1.8846664e-11 0.049421247
-1.8954335e-12 -0.064363815 -0.30749297 -0.08065648 0.12450503 -0.19863231 -0.06704871 -0.066029735
-0.17120005 0.6754663 1.7989134e-11 0.45265976 0.4155526 0.112797685 -0.00071446336 -0.12683967
0.035890594 -0.4142065 0.75515586 -0.24895546 0.005729671 0.11841175 -0.1607801 0.08830474
0.050562687 -0.02926986 -0.047570337 -1.4185435e-11 0.026130171 -0.12561946 0.038245235 -0.40404963
0.19856952 0.027795902 -0.09783984 0.11685924 -0.2546974 -0.45892644 6.103669e-12 1.1853373e-11
0.108441085 0.037749734 0.51739347 -0.2111708 0.29288605 0.43249062 0.1921397 -0.5302385
-0.22280453 -0.1585175 -0.115519784 0.13490924 0.20399979 -5.890731e-14 -0.030247787 0.16509822
00000000: 9af2 023e 55f3 ad3d f055 aabd 116f 7e3e
00000010: b3a3 e93e 9e1f c1be e4cb df3d e83c 163c
00000020: 0b38 e9bd df0a 69bd 2ad7 bb3e 59ab fd3d
00000030: 3cac 483e 0aa7 c4be 62c1 9ebe e8a3 16be
00000040: cfd8 243e e555 8b3e c15f a32c 5539 463e
00000050: 3aed 93bd 51e8 13be ed99 14bf 93b3 862d
00000060: 6e7c ecbd e406 43be fc37 22be db0f 2dbe
00000070: c94f 9a3d 6e52 823d 01b3 373e 464c 9cbe
00000080: 02e6 64be 5d46 b6be cb56 b93e 9f40 3dbe
00000090: 1555 e52c 0577 52be eac6 a52d ef6d 4a3d
000000a0: 1861 05ac 2dd1 83bd b86f 9dbe 392f a5bd
000000b0: 7efc fe3d 4566 4bbe d650 89bd 993a 87bd
000000c0: 114f 2fbe 5ceb 2c3f ee3b 9e2d 05c3 e73e
000000d0: 4fc3 d43e 7902 e73d d34a 3bba 42e2 01be
000000e0: 0402 133d e012 d4be e551 413f 2eee 7ebe
000000f0: f7bf bb3b dc81 f23d 8aa3 24be 1ed9 b43d
00000100: d21a 4f3d 58c7 efbc 1dd9 42bd 858d 79ad
00000110: f10e d63c 63a2 00be 09a7 1c3d 98df cebe
00000120: cf55 4b3e 3bb4 e33c 4160 c8bd e653 ef3d
00000130: b367 82be 68f8 eabe f6c0 d62c d986 502d
00000140: 5c16 de3d 779f 1a3d e673 043f 283d 58be
00000150: 29f5 953e 696f dd3e 45c0 443e b6bd 07bf
00000160: df26 64be 6952 22be a395 ecbd a625 0a3e
00000170: 52e5 503e c1a5 84a9 35ca f7bc 820f 293e

dense_B_b1_l4_bn_mean f4 [1, 96, 1, 1]
7.136079e-12 1.0908812e-09 -0.004138813 0.021200396 0.0006496493 -0.024442246 -0.018110316 -0.04218702
0.034141205 0.016776348 -0.02224428 0.011935741 4.4222516e-12 -1.2131409e-12 -0.02057822 0.009867994
-2.1701608e-06 -0.006611809 -0.034842715 0.03185479 0.0021894607 -8.245171e-12 0.009501725 -0.032667026
0.015224145 -0.03584883 -3.5958922e-12 1.9081143e-12 4.5494416e-12 0.01539525 -0.0021426843 0.022398992
-0.02851672 0.08589985 0.03469118 -8.539828e-13 0.04818572 -0.015096834 0.028223297 -3.3213677e-12
-0.024824498 -0.020396205 -0.028908024 0.07670307 -3.6640252e-12 -0.0011568179 -0.05918215 -0.0245099
2.2819988e-12 0.0032947117 0.0011741311 0.03839058 0.055259414 -0.035518475 7.5935173e-13 -0.026516812
0.007996148 0.032492124 -2.877759e-12 0.059937518 0.02895433 0.0059408797 -9.565391e-14 0.023917133
-0.025510468 -0.011030285 0.037003785 -0.02061859 0.034491368 7.670066e-13 0.033948425 -0.02415706
0.039576 0.0040805433 0.042420052 -0.041362554 -0.054554295 -0.02173136 0.07349526 0.021734623
0.056911394 -0.008139807 0.036670737 -0.001957097 -0.06326395 -0.0094027 0.015197727 -0.04210525
-3.3002325e-12 0.050744668 0.008464646 0.049484886 -0.014761548 -0.009565192 0.004073011 -0.0027965289
00000000: 1614 fb2c f8ed 9530 e19e 87bb 74ac ad3c
00000010: 3a4d 2a3a 1b3b c8bc 165c 94bc 4ccc 2cbd
00000020: a6d7 0b3d 8d6e 893c a339 b6bc 208e 433c
00000030: 1a98 9b2c 02bc aaab a893 a8bc 5ead 213c
00000040: 14a3 11b6 e0a7 d8bb 3cb7 0ebd 2b7a 023d
00000050: 0e7d 0f3b f30c 11ad 20ad 1b3c dccd 05bd
00000060: b16e 793c 39d6 12bd d609 7dac 8845 062c
00000070: ba11 a02c 5c3c 7c3c 476c 0cbb 177e b73c
00000080: e59b e9bc 43ec af3d 5718 0e3d f25f 70ab
00000090: 645e 453d b658 77bc 8b34 e73c 71b8 69ac
000000a0: bf5c cbbc f115 a7bc 85d0 ecbc 8016 9d3d
000000b0: 9bea 80ac 5ea0 97ba fb68 72bd fcc8 c8bc
000000c0: d694 202c 17ec 573b 4de5 993a 713f 1d3d
000000d0: b257 623d d27b 11bd 0fbd 552b c939 d9bc
000000e0: 4702 033c 7616 053d 1981 4aac 0b81 753d
000000f0: a231 ed3c b6ab c23b ba64 d7a9 dded c33c
00000100: 54fb d0bc 5eb8 34bc 4891 173d 51e8 a8bc
00000110: d246 0d3d a6e4 572b 810d 0b3d 07e5 c5bc
00000120: 721a 223d 14b6 853b a6c0 2d3d c86b 29bd
00000130: 5374 5fbd f705 b2bc af84 963d cf0c b23c
00000140: ec1b 693d d35c 05bc 0e34 163d a442 00bb
00000150: 8890 81bd c80d 1abc e3ff 783c 8e76 2cbd
00000160: b43b 68ac a4d9 4f3d 4caf 0a3c aab0 4a3d
00000170: 6bda 71bc 53b7 1cbc e576 853b f845 37bb

dense_B_b1_l7_bn_mean f4 [1, 96, 1, 1]
-0.028277477 1.7002133e-14 9.173693e-13 -0.03166946 -0.035227288 0.02761067 -0.0064348117 -0.053153872
0.05237987 -3.906401e-12 0.02697146 2.3808423e-12 0.024863422 -0.029940765 0.03491412 0.032227915
0.023695458 -0.019263094 0.01829567 -0.028686492 0.030493377 0.031113341 0.030966824 -0.025862899
0.070065364 0.01506314 0.0026131233 0.02033241 0.01131928 -0.07456637 0.060917813 -0.0137805715
0.05338419 -0.020136993 0.006110674 0.019760277 -0.01947425 -0.011365251 0.03470628 -0.026272545
-0.01459874 7.408645e-12 -0.015032933 0.031284437 -0.021866534 0.051163953 -0.07168835 0.018608587
0.012646259 -0.009828162 -0.00085762615 -0.0073277657 0.0006568731 0.03187218 0.028575152 -0.04458227
0.015502926 0.0038894548 -0.011202742 -0.081904635 0.04770575 -5.0920427e-12 0.008914668 -0.069336
-0.020237444 -0.018541815 4.1092923e-12 -0.02622947 0.018577825 -0.020247504 -8.428024e-13 0.03611675
0.09291667 5.6226248e-12 0.04174931 -0.040246 0.050807044 -0.0681945 -0.005601576 0.030509382
-0.055844847 0.004040697 4.1875225e-07 0.00469221 0.010046264 4.5598733e-11 0.017119743 0.053328365
-4.4931355e-12 -0.052164115 0.096010186 -0.003673261 -0.011328043 -0.022123396 0.014416276 -0.0034644045
00000000: 2ba6 e7bc 4024 9928 b61b 812b d6b7 01bd
00000010: 7d4a 10bd c62f e23c 1ddb d2bb e0b7 59bd
00000020: 468c 563d bb71 89ac 40f3 dc3c 7189 272c
00000030: 60ae cb3c 5646 f5bc 1c02 0f3d 6b01 043d
00000040: fa1c c23c a3cd 9dbc cde0 953c efff eabc
00000050: 3fcd f93c 68e1 fe3c 23ae fd3c 6ede d3bc
00000060: 6e7e 8f3d 63cb 763c ef40 2b3b 2790 a63c
00000070: 8074 393c 41b6 98bd f584 793d e8c7 61bc
00000080: 61a9 5a3d 56f6 a4bc 0c3c c83b 4ee0 a13c
00000090: 7688 9fbc 5135 3abc 2c28 0e3d 8539 d7bc
000000a0: 8e2f 6fbc 9255 022d b14c 76bc 1c24 003d
000000b0: 7221 b3bc 4b91 513d 57d1 92bd 0971 983c
000000c0: 4132 4f3c 4d06 21bc 51d2 60ba c11d f0bb
000000d0: 0232 2c3a 678c 023d 7016 ea3c e69b 36bd
000000e0: fcff 7d3c 39e6 7e3b b58b 37bc 9ebd a7bd
000000f0: 1b67 433d 0b29 b3ac d40e 123c 0800 8ebd
00000100: ffc8 a5bc 01e5 97bc 3795 902c 2fdf d6bc
00000110: 8630 983c 18de a5bc 503a 6dab 28ef 133d
00000120: 184b be3d 1ad4 c52c 5301 2b3d fdd8 24bd
00000130: 0c1b 503d 8fa9 8bbd 6d8d b7bb d0ee f93c
00000140: 91bd 64bd d367 843b dfd0 e034 1cc1 993b
00000150: 1699 243c 9c8b 482e b43e 8c3c d86e 5a3d
00000160: 9116 9eac 0aaa 55bd fda0 c43d 18bb 70bb
00000170: 4299 39bc 203c b5bc 3e32 6c3c 100b 63bb

dense_b2_l1_bn_var f4 [1, 24, 1, 1]
0.0214211 0.023852194 0.01852845 0.016332697 0.015669832 0.020845143 0.03210419 0.019822115
0.024764102 0.019353153 0.02476975 0.02404958 7.129239e-23 0.025607184 0.024965899 0.027945582
0.02036369 0.046285573 0.025151344 0.034239225 0.023071261 0.020525446 0.036419332 0.022265399
00000000: 4d7b af3c ad65 c33c fac8 973c 26cc 853c
00000010: 055e 803c 6fc3 aa3c af7f 033d fd61 a23c
00000020: 16de ca3c 818a 9e3c eee9 ca3c a003 c53c
00000030: da5f ac1a 28c6 d13c 4985 cc3c 22ee e43c
00000040: c1d1 a63c f195 3d3d 310a ce3c 6e3e 0c3d
00000050: f1ff bc3c fb24 a83c 702c 153d ed65 b63c

dense_b0_l10_bn_var f4 [1, 24, 1, 1]
0.049952254 0.014878809 0.02560797 6.9812183e-23 0.014945575 0.004604009 0.023970142 0.035580866
0.018086145 0.013298576 0.019592809 0.020240545 0.029151257 0.021307133 0.01592174 0.02142174
0.023124099 0.02024951 0.017843343 0.024111634 6.041607e-23 0.03550814 0.023419699 0.023198731
00000000: bc9a 4c3d 40c6 733c cec7 d13c a6cb a81a
00000010: 49de 743c 3add 963b 085d c43c 3ebd 113d
00000020: 6529 943c 45e2 593c 1981 a03c 80cf a53c
00000030: 9ece ee3c 4c8c ae3c 4f6e 823c a57c af3c
00000040: c06e bd3c 4de2 a53c 342c 923c c385 c53c
00000050: bc13 921a fc70 113d abda bf3c 440b be3c

dense_B_b1_l9_bn_mean f4 [1, 96, 1, 1]
0.06252425 0.03823812 -0.055262018 -0.012340602 0.005977019 -0.034478705 -0.03768918 -0.011429943
-1.4577167e-12 -0.0015465828 -0.005515658 -1.2472699e-12 -0.0010817179 1.0632443e-11 -0.004910182 0.05913111
0.0007278176 0.070485786 -0.016047936 5.1951833e-12 0.027034998 0.032956753 -0.044521518 5.081631e-12
0.0023729152 -0.032111276 -0.020506866 0.010403326 -0.0030013658 -0.012610566 -4.6585053e-05 0.022364968
-9.107077e-12 0.035215184 -0.01655169 1.4632741e-12 -0.0059233396 0.028615192 -0.00047532475 -1.90679e-12
-0.017944785 0.015743328 -0.029673796 -0.021142479 0.05941615 -0.008777435 6.4652207e-12 0.040422138
-0.013790326 0.02559195 0.060928863 1.0505064e-13 0.033286534 -0.00730904 0.01727317 -0.083752744
-1.1041832e-12 -0.03048841 0.061077014 0.017772984 -0.023596443 -0.011605942 0.018349739 -0.03471997
-0.021003373 -0.007914651 -0.020183897 3.7705403e-12 0.08055314 0.033400644 -0.0032297946 -2.8542565e-12
0.025090791 0.041187834 -0.027649336 0.0077384985 -1.5519894e-12 0.06254796 -0.020050837 -0.0099164685
-0.012081719 -0.04771192 -7.182174e-12 -0.004763824 0.009530103 0.017824879 0.027596006 -0.030829085
-0.010518405 7.1997e-06 -0.0424479 0.006717004 0.038125575 -0.0036496497 -0.031764507 -0.039770193
00000000: b70c 803d 939f 1c3d 6d5a 62bd 3d30 4abc
00000010: dfda c33b 8b39 0dbd f85f 1abd a844 3bbc
00000020: c727 cdab b5b6 caba b1bc b4bb a289 afab
00000030: 6ec8 8dba 440c 3b2d 98e5 a0bb 7633 723d
00000040: 03cb 3e3a da5a 903d f676 83bc 0dca b62c
00000050: 8078 dd3c a9fd 063d 325c 36bd 43cb b22c
00000060: e982 1b3b 1d87 03bd 04fe a7bc b672 2a3c
00000070: 90b2 44bb 8c9c 4ebc 5264 43b8 bd36 b73c
00000080: a136 20ad cc3d 103d 6997 87bc 01f0 cd2b
00000090: 9318 c2bb 686a ea3c 0235 f9b9 ad2d 06ac
000000a0: f100 93bc 27f8 803c 7616 f3bc fe32 adbc
000000b0: 595e 733d 3bcf 0fbc 8879 e32c af91 253d
000000c0: d2f0 61bc 36a6 d13c 8b90 793d 928d ec29
000000d0: 7657 083d ac80 efbb 7780 8d3c 8f86 abbd
000000e0: 6466 9bab d4c2 f9bc e42b 7a3d a698 913c
000000f0: 544d c1bc d926 3ebc 3152 963c 8736 0ebd
00000100: 440f acbc 74ac 01bc b358 a5bc 02aa 842c
00000110: 0bf9 a43d 1dcf 083d f6aa 53bb b7d9 48ac
00000120: 348b cd3c 93b4 283d dc80 e2bc 3b93 fd3b
00000130: 506c daab 2519 803d a741 a4bc af78 22bc
00000140: 67f2 45bc 936d 43bd 46b3 fcac da19 9cbb
00000150: 2624 1c3c 7b05 923c 0511 e23c 478d fcbc
00000160: 6355 2cbc f494 f136 d9dd 2dbd 501a dc3b
00000170: 9029 1c3d f62e 6fbb 801b 02bd 12e6 22bd

dense_b2_l9_bn_var f4 [1, 24, 1, 1]
0.01723474 0.010852806 0.012170412 0.012144914 0.011903614 0.009994853 0.011318206 0.012302677
0.01632775 0.010813842 0.012868456 0.011178444 0.007734583 0.016188124 0.018071303 0.010167173
0.011734446 0.0123379035 0.013405378 0.009137151 0.012667736 0.010713305 0.010180642 0.011372419
00000000: df2f 8d3c f8cf 313c 6866 473c 76fb 463c
00000010: 6007 433c 74c1 233c ff6f 393c 2b91 493c
00000020: c6c1 853c 8a2c 313c 37d6 523c cb25 373c
00000030: 6372 fd3b f59c 843c 450a 943c 3794 263c
00000040: d541 403c eb24 4a3c 3ba2 5b3c fdb3 153c
00000050: 568c 4f3c dc86 2f3c b5cc 263c 6253 3a3c

dense_B_b0_l14_bn_var f4 [1, 96, 1, 1]
1.3754442e-20 9.121755e-23 0.008497516 0.005065014 0.011013202 0.00660195 0.006362631 0.004683634
0.0068524485 0.0090290345 6.286388e-11 8.482666e-16 1.1034673e-22 1.3897485e-22 0.0052957796 0.004759705
0.009849343 0.009443286 0.0051659397 0.006704731 0.006658721 0.007972404 0.0051097716 0.00834643
0.008537262 0.006109653 8.418708e-23 0.0063862978 0.009898751 1.1267887e-22 0.0041168523 1.0817839e-16
0.009585369 0.0045950664 0.009493451 0.0043055783 0.0065135714 0.004846365 0.0066732704 0.007475467
0.006250791 7.572171e-23 0.0043926346 0.005305452 0.005855181 0.007335401 0.011258495 0.0030714218
0.006419739 0.006717864 0.008149972 0.006336271 0.0050389566 1.5629694e-22 1.0822387e-22 0.0059693526
1.3216759e-22 0.0016810097 0.0029217682 0.004645648 0.0013020848 0.006295419 4.4191855e-11 0.007611335
0.006197595 1.0597097e-22 0.0041486253 7.8565846e-17 0.01175042 0.0074086594 0.004365666 3.3795765e-22
0.0024006213 0.0072276476 0.0076522683 0.0044464795 0.005574758 0.007878426 8.805628e-05 0.005019152
2.9751794e-22 0.007246545 0.0043996144 0.0070059584 0.0064181956 0.008770946 0.0037743843 0.00496357
0.002568453 0.0102927955 2.2316565e-22 8.072596e-23 0.0038744395 0.0012958552 1.4306101e-22 3.195998e-11
00000000: 33e8 811e ee8c dc1a 2a39 0b3c 6bf8 a53b
00000010: b870 343c 2c55 d83b 9e7d d03b 2b79 993b
00000020: 818a e03b 84ee 133c 383d 8a2e 077f 7426
00000030: a966 051b a202 281b 3888 ad3b 4df7 9b3b
00000040: 245f 213c 03b8 1a3c 0b47 a93b 5cb3 db3b
00000050: 6631 da3b b09e 023c df6f a73b 77bf 083c
00000060: dfdf 0b3c 7c33 c83b 478d cb1a 2644 d13b
00000070: 5f2e 223c 6c38 081b a9e6 863b 4071 f924
00000080: f40b 1d3c 3692 963b 6b8a 1b3c cf15 8d3b
00000090: cc6f d53b 42ce 9e3b 73ab da3b c3f4 f43b
000000a0: 6fd3 cc3b 7815 b71a 17f0 8f3b 5bd9 ad3b
000000b0: d1dc bf3b ce5d f03b 8d75 383c e849 493b
000000c0: ad5c d23b 8721 dc3b 7687 053c 7ea0 cf3b
000000d0: d51d a53b 8ff3 3c1b aad5 021b 8f9a c33b
000000e0: e3c7 1f1b 5355 dc3a 237b 3f3b 853a 983b
000000f0: b7aa aa3a cd49 ce3b 9b5b 422e 8168 f93b
00000100: 3215 cb3b 6d1c 001b 31f1 873b 1729 b524
00000110: d584 403c 57c4 f23b dc0d 8f3b 6a48 cc1b
00000120: be53 1d3b e7d5 ec3b e1bf fa3b c6b3 913b
00000130: 76ac b63b 8414 013c dbaa b838 b377 a43b
00000140: acd6 b31b 6d74 ed3b a42a 903b 3d92 e53b
00000150: ba4f d23b 04b4 0f3c a95b 773b 71a5 a23b
00000160: 7e53 283b 1da3 283c 36e5 861b f32e c31a
00000170: 4fea 7d3b afd9 a93a 3df3 2c1b bd8f 0c2e

dense_B_b2_l3_bn_mean f4 [1, 96, 1, 1]
-0.32240373 -0.20471366 0.18616 0.05239718 0.08091333 -0.04796546 9.2709465e-11 -0.42009008
0.1502898 -0.18785277 0.29714325 0.04452613 -0.08876657 -0.05851513 -0.030948088 0.12830514
-0.27977794 0.23766558 0.27232534 -0.010143582 0.22369516 -0.19926417 1.0935375e-11 0.14125548
-0.12639983 -0.46554917 0.17279586 0.3282197 -0.10682095 0.33838448 0.28133002 -0.3463045
-0.17704383 -0.20536038 -0.10269386 -0.46622515 -0.17986889 0.020521792 -0.3714683 -0.0014727033
-0.122913614 -2.633049e-13 0.23972495 -0.10862504 0.30973658 0.22204667 0.35785484 -4.0988015e-11
0.047749158 0.06626319 3.785437e-07 0.15389073 0.008103135 0.29472473 -0.06358019 0.079255395
0.458401 0.5272708 -0.08134136 8.2476794e-12 0.19154128 0.12667213 -0.074468575 0.056511972
-0.58312654 -0.07612525 -0.09581668 0.2398416 0.16159827 0.007812738 0.20729987 0.5074415
0.104829825 -0.190162 0.3488767 -0.2783303 0.014391629 0.010164275 0.19831063 -0.22578931
0.04026212 0.18641642 -0.4235299 -0.4443345 -0.15567775 0.002322841 0.071654305 0.20458092
-0.25493062 0.00035526755 -0.03546156 0.21721618 -0.21946725 0.08931738 -0.12994474 0.20093825
00000000: 1a12 a5be 75a0 51be baa0 3e3e 6d9e 563d
00000010: e3b5 a53d 6e77 44bd cade cb2e 0c16 d7be
00000020: 92e5 193e 7a5c 40be 2923 983e 0861 363d
00000030: 3fcb b5bd 90ad 6fbd d886 fdbc 6c62 033e
00000040: 0e3f 8fbe 9b5e 733e 3a6e 8b3e 4431 26bc
00000050: 5810 653e e80b 4cbe 8d60 402d 47a5 103e
00000060: f56e 01be 765c eebe 66f1 303e 6a0c a83e
00000070: f1c4 dabd bb40 ad3e 7d0a 903e d34e b1be
00000080: fa4a 35be fe49 52be 2951 d2bd 10b5 eebe
00000090: 8d2f 38be 511d a83c 1831 bebe b907 c1ba
000000a0: 22ba fbbd 3c3a 94aa 757a 753e ce76 debd
000000b0: cb95 9e3e 3460 633e c038 b73e 6744 34ae
000000c0: 9f94 433d ffb4 873d a63a cb34 8895 1d3e
000000d0: 03c3 043c 29e6 963e 5536 82bd a750 a23d
000000e0: 89b3 ea3e 38fb 063f 4d96 a6bd 3f18 112d
000000f0: 6623 443e 57b6 013e fb82 98bd 1979 673d
00000100: c847 15bf 8ee7 9bbd 893b c4bd 0999 753e
00000110: 047a 253e 0001 003c 6b46 543e b0e7 013f
00000120: 05b1 d63d d4b9 42be f89f b23e 4f81 8ebe
00000130: deca 6b3c 0f88 263c f111 4b3e 5035 67be
00000140: e5e9 243d f2e3 3e3e e9d8 d8be d07f e3be
00000150: fd69 1fbe ce3a 183b 7ebf 923d a97d 513e
00000160: 4486 82be 3443 ba39 2440 11bd eb6d 5e3e
00000170: 06bc 60be 08ec b63d 3c10 05be c2c2 4d3e

dense_b0_l4_bn_var f4 [1, 24, 1, 1]
0.04011428 0.022103162 0.031638723 0.032860037 0.051505595 0.04824664 0.044496328 0.032986432
0.023307744 0.03856768 0.04242714 0.022282755 0.016708791 0.027196078 0.017147725 0.036633726
0.03049491 0.08298362 0.034794956 0.037120562 0.02943762 0.04029248 0.04988429 0.020548342
00000000: df4e 243d b111 b53c 9b97 013d 3f98 063d
00000010: 88f7 523d 459e 453d c841 363d c81c 073d
00000020: e2ef be3c 25f9 1d3d 15c8 2d3d 538a b63c
00000030: e0e0 883c 4fca de3c 6379 8c3c 3f0d 163d
00000040: 76d0 f93c 51f3 a93d 2885 0e3d bb0b 183d
00000050: 2a27 f13c ba09 253d 7853 4c3d ff54 a83c

dense_b1_l10_bn_var f4 [1, 24, 1, 1]
0.013623655 0.01241429 0.0092140315 0.016019348 0.011737323 0.016811414 0.012187161 0.014556477
0.019551566 0.02161684 0.012969926 0.015011201 0.011734863 0.023953242 0.013409922 0.012878381
0.016143784 0.013043967 0.022022096 5.3444014e-23 0.015858743 0.017230839 0.03298642 0.012707026
00000000: c035 5f3c 4e65 4b3c 73f6 163c 023b 833c
00000010: e74d 403c 17b8 893c a8ac 473c 4a7e 6e3c
00000020: 9b2a a03c cd15 b13c d07f 543c 8af1 753c
00000030: 9543 403c 9739 c43c 4ab5 5b3c d8ff 523c
00000040: f83f 843c 5db6 553c af67 b43c 3e38 811a
00000050: 32ea 813c b027 8d3c c51c 073d 2131 503c

dense_B_b1_l8_bn_mean f4 [1, 96, 1, 1]
-9.315812e-13 -0.012177277 -0.1146463 -0.04123883 0.029740022 -0.0052067707 -0.032944668 -0.0026881432
-0.09379167 0.04088237 3.4752036e-12 -0.058276862 -0.062189154 -0.04032488 -0.0005340235 -0.0062906416
0.008655347 -0.013082024 -0.030866375 -0.010033562 0.010067452 -0.055754688 -0.016682204 -0.13051096
0.015534927 0.034144733 0.008843733 -0.01763938 0.032162327 1.3201395e-12 -0.024579592 -0.0078983065
-0.03669891 -0.03855362 3.6264377e-12 -0.02844809 -0.005986053 0.0056526633 2.6316978e-12 0.012201988
0.047866922 -0.05743677 -7.2252486e-12 -1.5329451e-12 -0.0049328273 -0.08830288 -0.041932564 0.05283287
-0.0033799394 0.033172894 0.035125006 0.017403824 0.0258177 0.031368237 -0.012421322 -0.020573458
0.017740643 -0.020546686 -0.042787008 0.03605903 0.090156935 0.038760107 -0.04699813 -0.008476814
1.0214204e-11 -0.013998404 -0.0011368623 -0.06862617 -0.017441304 -0.023275595 -0.018404655 2.6208329e-05
-0.004905338 -0.002919261 0.004032207 -0.028145516 -0.0055004423 -0.051911872 -0.07883485 0.033132445
0.017810695 0.07833949 0.028034661 7.787151e-13 -0.038375482 -0.048235875 -0.035446677 -0.050768733
0.0152722355 0.0043732766 -0.030097978 -0.005736819 -0.010206996 -0.028698165 -0.0865245 -0.012381027
00000000: c01b 83ab 3483 47bc aecb eabd 0cea 28bd
00000010: 59a1 f33c 8f9d aabb fdf0 06bd 8f2b 30bb
00000020: d915 c0bd 4674 273d b48b 742c b8b3 6ebd
00000030: 0eba 7ebd b42b 25bd b6fd 0bba ba21 cebb
00000040: 28cf 0d3c fc55 56bc 7bdb fcbc cf63 24bc
00000050: f4f1 243c 075f 64bd 1ea9 88bc aaa4 05be
00000060: 3586 7e3c 59db 0b3d 4ee5 103c 7680 90bc
00000070: a5bc 033d 0acb b92b 245b c9bc e667 01bc
00000080: 9951 16bd 67ea 1dbd 1830 7f2c f80b e9bc
00000090: a726 c4bb fa39 b93b 7430 392c d9ea 473c
000000a0: 1b10 443d d242 6bbd 4137 feac 2bbe d7ab
000000b0: 8ea3 a1bb 24d8 b4bd 7bc1 2bbd 4867 583d
000000c0: f981 5dbb 4de0 073d 3ddf 0f3d 7792 8e3c
000000d0: a47f d33c fb7b 003d cd82 4bbc ab89 a8bc
000000e0: d354 913c 8651 a8bc 6e41 2fbd a2b2 133d
000000f0: 33a4 b83d ebc2 1e3d 1c81 40bd 56e2 0abc
00000100: afb0 332d 9059 65bc c502 95ba e18b 8cbd
00000110: 11e1 8ebc 76ac bebc 5cc5 96bc f5d9 db37
00000120: f5bc a0bb 1351 3fbb 9b20 843b 6d91 e6bc
00000130: 0e3d b4bb 8ba1 54bd 2a74 a1bd e3b5 073d
00000140: bce7 913c 7470 a03d f2a8 e53c 5630 5b2b
00000150: 9c2f 1dbd fb92 45bd 8930 11bd e0f2 4fbd
00000160: 6638 7a3c b44d 8f3b 0990 f6bc edfb bbbb
00000170: 3f3b 27bc 6a18 ebbc c233 b1bd cbd9 4abc
