VGG/models/bn_params.npz (npz, 16010 bytes, 33 tensors)

conv_b1_l1_bn_mean f4 [1, 64, 1, 1]
0	0x060830be	2.5614567e-35
1	0xbc002da4	-0.007823382
2	0x3dfcfb0d	0.12352572
3	0xbd48d9b4	-0.049035743
4	0x3cad9010	0.021186858
5	0xbd65e159	-0.05612311
6	0xbe5a8092	-0.21338108
7	0xbde506b2	-0.11182918
8	0x0594ab30	1.3980737e-35
9	0x3b64c492	0.0034907204
10	0xbdb359d1	-0.087573655
11	0x3d2324d7	0.039830055
12	0xbdbbfb70	-0.09178817
13	0x86abb1b5	-6.458417e-35
14	0x3d9b48d5	0.07582251
15	0xbdb22829	-0.08699066
16	0x3b556c4c	0.003256577
17	0x3df334cd	0.11875305
18	0xbe1ab942	-0.15109733
19	0x3d2c0b98	0.042003244
20	0xbd73b738	-0.059500903
21	0x05c6ca72	1.8694197e-35
22	0x3ce782db	0.028260639
23	0xbd82b5cf	-0.063823335
24	0xbd4e81fd	-0.050416935
25	0x3dec6d61	0.115443
26	0xbd850681	-0.06495381
27	0x3b01ddda	0.0019816072
28	0xbdd34a36	-0.10316889
29	0x3daebdd0	0.085322976
30	0x8611e4ca	-2.7439557e-35
31	0xbd23345e	-0.039844863
32	0xbdb886c6	-0.09010081
33	0xbd1519ed	-0.036401678
34	0x3db71c88	0.08940989
35	0x3cba8a59	0.022771047
36	0x3d58e39e	0.052951448
37	0x3d397628	0.0452787
38	0xbd6cf442	-0.05785013
39	0x06073407	2.5428902e-35
40	0xbaab22c9	-0.0013056631
41	0xbd1ca57b	-0.038243752
42	0x3dba865e	0.0910766
43	0x3d807227	0.06271773
44	0x3d8f0afb	0.06984516
45	0x3cd1ec85	0.025625477
46	0xbde90712	-0.11378302
47	0x3dc8a359	0.09796781
48	0x3d4005a9	0.046880398
49	0xbc846335	-0.016160587
50	0x3db2aa82	0.08723928
51	0xbdbfb977	-0.093615465
52	0x862f7d91	-3.3006093e-35
53	0xbd8f05ea	-0.0698355
54	0x3cc8c6e6	0.024508905
55	0xbcc33cd6	-0.02383272
56	0x052c4ec5	8.101869e-36
57	0xbcdc7893	-0.026912963
58	0xbd893e1f	-0.06701302
59	0x3cc97347	0.024591101
60	0x3d9f4f56	0.07778804
61	0x3da5207f	0.08062839
62	0x3db8cfde	0.090240225
63	0x3ccdc38a	0.025117654

conv_b3_l0_bn_var f4 [1, 128, 1, 1]
0	0x00000004	6e-45
1	0x3c17f757	0.009275279
2	0x3c154224	0.009110007
3	0x3c5bc0b3	0.013412642
4	0x3c525bc5	0.012839262
5	0x3cdaa559	0.026690172
6	0x3c11d04d	0.00889976
7	0x00000004	6e-45
8	0x3bb0fb28	0.005401034
9	0x3c659e18	0.014014743
10	0x3c72b9f8	0.014814846
11	0x3c7d5c5c	0.015463915
12	0x3c3693d3	0.0111436425
13	0x3c30dab1	0.010794328
14	0x3c188d07	0.009310967
15	0x3cbb3759	0.02285354
16	0x3c058e55	0.00815161
17	0x3c759dd5	0.014991243
18	0x3bf14abc	0.0073636454
19	0x3c4f42f6	0.012650242
20	0x3c2c536a	0.010517934
21	0x3c212f89	0.009837993
22	0x3c379a3a	0.011206204
23	0x3c539bd1	0.0129155675
24	0x00000004	6e-45
25	0x3c66c1de	0.0140843075
26	0x3caa9844	0.020824559
27	0x3c22e812	0.009943025
28	0x3c4a294f	0.01233895
29	0x3c273eee	0.010207875
30	0x3c5e18e2	0.013555737
31	0x3c8e479d	0.017368132
32	0x3c37eb31	0.011225508
33	0x3bf8dda5	0.0075947815
34	0x3bf74571	0.00754612
35	0x3c847b8a	0.01617219
36	0x3c0ffe18	0.008788608
37	0x00000004	6e-45
38	0x3c196943	0.009363475
39	0x3c599b68	0.013281681
40	0x3c25c7d9	0.010118448
41	0x00000004	6e-45
42	0x3c857332	0.016290281
43	0x3c2a8f89	0.010410198
44	0x3c36c219	0.011154675
45	0x3c40187c	0.0117245875
46	0x3c5c0232	0.013428258
47	0x3ca146ba	0.019687045
48	0x3c7f363e	0.015576897
49	0x3ca08bca	0.019597907
50	0x3bb92c27	0.0056510153
51	0x3c9e022b	0.019288143
52	0x3c42fe34	0.011901427
53	0x3ccce397	0.025010867
54	0x3bda249c	0.006657196
55	0x3c4fcf36	0.01268368
56	0x3c849f00	0.016189098
57	0x3cda27fd	0.026630396
58	0x3c9999e1	0.018750133
59	0x3c484663	0.012223813
60	0x3c424639	0.011857563
61	0x3c43dee6	0.011954999
62	0x3c80cd27	0.015722824
63	0x3c06fec8	0.0082394555
64	0x3c598ec1	0.013278664
65	0x3c81a267	0.01582451
66	0x3c0286c9	0.007966706
67	0x3c252374	0.010079253
68	0x3c974909	0.018467443
69	0x3c4420dc	0.011970725
70	0x3c4df0b8	0.012569599
71	0x3c6735d2	0.014111953
72	0x3c5457f6	0.012960425
73	0x3c23b178	0.009991042
74	0x3c171ff6	0.009223929
75	0x3c094230	0.008377597
76	0x3c2d8a17	0.010592005
77	0x3c232314	0.009957094
78	0x3c6f386e	0.014600856
79	0x3c0043fa	0.007828707
80	0x3c54a0a5	0.012977754
81	0x3c8c00c4	0.017090209
82	0x3bdfe1c8	0.006832335
83	0x3c73bd2b	0.014876644
84	0x3c909d4c	0.01765313
85	0x3c3a4bea	0.011370638
86	0x3c186c10	0.009303108
87	0x3cb01079	0.02149223
88	0x3c32fbc4	0.010924283
89	0x3c88345f	0.016626535
90	0x00000004	6e-45
91	0x3c4d3216	0.012524148
92	0x3c6b21f3	0.014351356
93	0x3c1e7f09	0.009673842
94	0x3c8797f7	0.016551955
95	0x3c7e08c6	0.015505021
96	0x3c4d85b1	0.012544082
97	0x3c33ee06	0.010982042
98	0x3c870846	0.016483437
99	0x00000004	6e-45
100	0x3c73392f	0.014845177
101	0x3c936687	0.017993225
102	0x3c433a00	0.011915684
103	0x3ce4b97b	0.027920475
104	0x00000004	6e-45
105	0x3c932e4d	0.017966414
106	0x3c27b13d	0.010235128
107	0x00000004	6e-45
108	0x3c8717ea	0.016490895
109	0x3c6b2b98	0.014353655
110	0x00000004	6e-45
111	0x3c204ba6	0.009783661
112	0x3c557369	0.013028004
113	0x3c259138	0.010105424
114	0x00000004	6e-45
115	0x3c4d798e	0.012541188
116	0x3c1c6348	0.009545155
117	0x3c54cd7d	0.012988445
118	0x3c2a84c2	0.0104076285
119	0x3c1a7579	0.009427422
120	0x3c203d63	0.009780261
121	0x3c0f95b6	0.008763721
122	0x3bf2f048	0.0074138977
123	0x3ca7f128	0.020500734
124	0x3c48eb63	0.012263152
125	0x3c9fd717	0.019511743
126	0x3c2bcf1f	0.010486393
127	0x3c851271	0.016244145

conv_b1_l3_bn_var f4 [1, 64, 1, 1]
0	0x3c17bbe2	0.009261103
1	0x3d147c14	0.036251143
2	0x3c3cb093	0.011516708
3	0x3c8157bc	0.015788905
4	0x3c54edc2	0.012996139
5	0x3c15f6e6	0.009153103
6	0x00000004	6e-45
7	0x3c667883	0.014066818
8	0x3d06d4c8	0.032917768
9	0x3c72495a	0.014787996
10	0x3c869591	0.01642874
11	0x3c6cf306	0.014462238
12	0x3c8dd8b9	0.017315255
13	0x3c3d57bd	0.011556563
14	0x00000004	6e-45
15	0x3c2c4773	0.010515082
16	0x3c9e4113	0.01931814
17	0x3c03b788	0.008039363
18	0x3cadf588	0.021235242
19	0x3c33b046	0.01096732
20	0x3cb09b05	0.021558294
21	0x3c59fc90	0.0133048445
22	0x3c98f55e	0.018671688
23	0x3cde2506	0.027117264
24	0x00000004	6e-45
25	0x3c690857	0.01422318
26	0x3c3ab0ea	0.011394719
27	0x3c4372e6	0.011929249
28	0x3c2d6f9f	0.010585695
29	0x3c3db92f	0.011579796
30	0x3c11d8fb	0.00890183
31	0x00000004	6e-45
32	0x3c5664be	0.013085542
33	0x3cf91834	0.030407049
34	0x3ca71664	0.020396419
35	0x3c9e12b1	0.019296022
36	0x3c73dbec	0.014883976
37	0x3c1e9ef5	0.009681453
38	0x3c9f40b0	0.019440025
39	0x3c305354	0.0107620545
40	0x3c0eec7e	0.008723376
41	0x3c41bf93	0.01182546
42	0x3c163c89	0.009169706
43	0x3cb76627	0.022387577
44	0x3c46b2b5	0.012127568
45	0x3c58f19e	0.0132412
46	0x3c847aaa	0.016171772
47	0x3cadaaa1	0.021199526
48	0x3cad862e	0.021182146
49	0x3c2f8662	0.010713192
50	0x00000004	6e-45
51	0x3c31137b	0.010807867
52	0x3cd3a8eb	0.025837382
53	0x3c8a4d45	0.016882548
54	0x3cb4ecb7	0.02208553
55	0x3c9c35ea	0.019068677
56	0x3cdc1a30	0.026867956
57	0x3c321eb8	0.010871582
58	0x3c4c9d92	0.01248874
59	0x3c7622fd	0.01502299
60	0x00000004	6e-45
61	0x3c923d98	0.017851636
62	0x3c8f8ac4	0.017522223
63	0x3c98fa96	0.018674176

conv_b2_l1_bn_var f4 [1, 64, 1, 1]
0	0x3c09f451	0.008420066
1	0x3c05963e	0.008153496
2	0x00000004	6e-45
3	0x3c0c18f4	0.008550871
4	0x3c422270	0.011849031
5	0x3c0070e3	0.007839414
6	0x3bb1599e	0.0054122945
7	0x3c77d906	0.015127426
8	0x3c2b2538	0.010445885
9	0x3c2202dc	0.009888377
10	0x3be4a42b	0.006977578
11	0x00000004	6e-45
12	0x3bfde6ee	0.007748476
13	0x3bf3ae66	0.0074365614
14	0x3c02fac4	0.0079943575
15	0x3c5e5db0	0.0135721415
16	0x3c3d1249	0.011540004
17	0x3c5875e1	0.013211698
18	0x3c332e65	0.010936354
19	0x3c16e854	0.009210665
20	0x3bc3771e	0.0059651276
21	0x3c8d8b76	0.017278414
22	0x00000004	6e-45
23	0x3c5d4f89	0.013507732
24	0x3c5c63d6	0.013451537
25	0x3c017654	0.007901747
26	0x3c6550f8	0.013996355
27	0x3c3a589c	0.011373665
28	0x3c8f13c7	0.017465485
29	0x3c8105e4	0.01574988
30	0x3c1ebd7d	0.009688732
31	0x3c0466af	0.008081122
32	0x3c97525f	0.018471895
33	0x3c13529d	0.0089918645
34	0x3bde2f6e	0.0067805564
35	0x3bdf5752	0.0068158293
36	0x3c8051fd	0.015664095
37	0x3c8d2621	0.017230095
38	0x3c18b37b	0.009320135
39	0x3be52830	0.006993316
40	0x00000004	6e-45
41	0x3c38080f	0.01123239
42	0x3c7dc1a3	0.015488061
43	0x3c017391	0.007901088
44	0x3c00a79d	0.007852462
45	0x3c3b5e6d	0.011436087
46	0x00000004	6e-45
47	0x3c2f95e8	0.010716893
48	0x3c035fb1	0.00801842
49	0x3c2ea910	0.010660425
50	0x3c623f4a	0.013809035
51	0x3c6dcf20	0.0145147145
52	0x3c079071	0.008274184
53	0x3c8c3222	0.017113749
54	0x3cbc3482	0.022974256
55	0x3c6a03f0	0.014283165
56	0x398ff63c	0.00027458544
57	0x3c39faef	0.011351331
58	0x3c4ea83f	0.012613355
59	0x3afc2afd	0.0019238886
60	0x3c164166	0.009170866
61	0x3c9ca04e	0.019119408
62	0x3c532414	0.01288702
63	0x00000004	6e-45

conv_b3_l2_bn_mean f4 [1, 128, 1, 1]
0	0xbd8a7c26	-0.06761961
1	0x05cb8960	1.9140492e-35
2	0xbd929429	-0.071571656
3	0x3dbc845a	0.092049316
4	0x05c14e35	1.8178362e-35
5	0xbe0297ea	-0.12753263
6	0xbe0af7db	-0.13571112
7	0x3df6af52	0.120451584
8	0x3d683c01	0.05669785
9	0xbda600d0	-0.08105624
10	0x3c392c85	0.011302118
11	0x3dd11173	0.10208406
12	0xbe258ecb	-0.16167752
13	0x85b394f5	-1.6887797e-35
14	0x8525804f	-7.781829e-36
15	0x3daa8bcf	0.083274476
16	0x3bd76c26	0.0065741716
17	0x3df5ceb4	0.12002316
18	0x3ddef266	0.108860776
19	0xbe0cce28	-0.13750517
20	0xbdd2592c	-0.102709144
21	0x3ce369a0	0.027760327
22	0x3d5ee8d5	0.054421265
23	0xbe2a661d	-0.16640516
24	0xbe0f9da2	-0.14024976
25	0xbdd52cc0	-0.10408926
26	0x3e027fee	0.12744114
27	0xbdcdcade	-0.100484595
28	0xbd0879cb	-0.033319276
29	0xbdd76977	-0.10518163
30	0xbc7fc20d	-0.01561023
31	0x3e0b2e3a	0.13591853
32	0x3dd9e014	0.10638443
33	0xbe0a7a8f	-0.13523315
34	0x3d3f380e	0.046684317
35	0x0524d66a	7.7506246e-36
36	0xbe0f34b7	-0.13984953
37	0xbdfac55f	-0.12244677
38	0xbdd225d4	-0.102611214
39	0x3e025c0c	0.12730426
40	0x3d8f1248	0.06985909
41	0xbd2c9337	-0.042132583
42	0xbdf8fa2c	-0.121570915
43	0xbcd0456d	-0.02542373
44	0xbd1b144c	-0.037861153
45	0xbe0c81a3	-0.13721327
46	0x3cbe8067	0.023254586
47	0x8596b1a6	-1.417119e-35
48	0x3da42a2b	0.080158554
49	0xbe038e1f	-0.12847184
50	0x3dbc5b53	0.09197106
51	0x3da0620c	0.07831201
52	0xbe0765c2	-0.13222411
53	0xbe1c0ebc	-0.15239996
54	0xbdf7714f	-0.12082159
55	0x3de90eed	0.113798
56	0x3dfbf2ca	0.12302168
57	0xbe173865	-0.14767607
58	0x38e089da	0.00010706829
59	0xbdb8d31f	-0.09024643
60	0x3c11c284	0.008896474
61	0x3de4e869	0.11177141
62	0xbe2a1207	-0.1660844
63	0x3d34fe6c	0.044187948
64	0x3a56f592	0.0008200045
65	0x3db671ac	0.089084
66	0xbdbd001d	-0.09228537
67	0x3c2aac8a	0.010417113
68	0xbddb957b	-0.107218705
69	0xbd140219	-0.036134813
70	0x3dc1d439	0.094643064
71	0x3d46e78c	0.048560664
72	0x3dd02454	0.10163179
73	0x3c8484c0	0.016176581
74	0xbdbf0b2c	-0.09328303
75	0x3e393b4d	0.18089028
76	0x3d0b0789	0.033942733
77	0x8526c6c3	-7.841789e-36
78	0x85ba4aba	-1.7518806e-35
79	0xbdcf0a63	-0.10109403
80	0xbe231979	-0.15927686
81	0xbe3d8973	-0.18509464
82	0x3df0e40a	0.11762245
83	0xbdcfdcb9	-0.101495214
84	0x3c0fb5ef	0.008771404
85	0xbba33b4b	-0.0049814335
86	0xbd9d49f8	-0.07680124
87	0x866a0024	-4.4010612e-35
88	0xbde097b1	-0.10966433
89	0x3db8fab3	0.09032192
90	0xbdf03c3b	-0.11730238
91	0xbe208a13	-0.15677671
92	0x3d81ff0c	0.063474745
93	0x3dc65e5f	0.096859686
94	0x3d87eb14	0.066366345
95	0xbdedc4f1	-0.11609829
96	0x3e4d1333	0.20026855
97	0x3d8d27a1	0.06892324
98	0x3e0ecaeb	0.13944595
99	0xbdffd220	-0.1249125
100	0x3e3663fa	0.17811576
101	0xbdf96f3f	-0.12179422
102	0x3e3c4e87	0.18389331
103	0x3dc0f6f8	0.094221056
104	0x3d343797	0.043998327
105	0x3d8e3eea	0.06945594
106	0xbc2b81e6	-0.010467982
107	0xbe314638	-0.17311943
108	0xbcd2dd19	-0.025740193
109	0x3e24bd26	0.1608778
110	0xbdac4525	-0.08411626
111	0xbd79fc99	-0.06103191
112	0x85e57db3	-2.1581231e-35
113	0xbd95737c	-0.072974175
114	0xbe172c5d	-0.14763017
115	0x05a51c75	1.5526979e-35
116	0x3de3b98b	0.11119374
117	0x3d495a79	0.049158547
118	0xbdba8f67	-0.09109383
119	0x3de509cf	0.111835115
120	0x85a42b61	-1.5438421e-35
121	0xbdd3d15a	-0.10342665
122	0x3d958056	0.07299869
123	0x3e1d74b8	0.15376556
124	0xbd5582e1	-0.05212677
125	0xbd96f713	-0.073713444
126	0x3d8577d5	0.06516997
127	0x3d75a332	0.05997009

history_errs f8 [27]
0	0x405a7528f64255d5	105.830625119
1	0x4059cab068a99dda	103.167017141
2	0x4057ba8e377f3a76	94.9149302237
3	0x40579bf7f95821fe	94.4370101319
4	0x40671e8ffa849e94	184.95507551100002
5	0x4057a27e6d00d86f	94.5389664181
6	0x405d968952a8de1e	118.35213152399999
7	0x4053141d2aeb5a0f	76.31428025230001
8	0x40537c1bfe3cf2aa	77.9392085643
9	0x405308b1e0840d0b	76.1358567514
10	0x404ff0e4e772fad0	63.8819855987
11	0x4052f586ecc45d14	75.83636016060001
12	0x4050c79f4be790f1	67.11909768689999
13	0x404c96d47e43253a	57.178359778200004
14	0x404a9f92e60bb81a	53.24667049
15	0x404ba8a900b385df	55.317657554300006
16	0x40494d1436396a33	50.602179315600004
17	0x404837c202b54d3a	48.435608232999996
18	0x4046fe8c5310f261	45.9886573632
19	0x4047f0cbd8e9ef25	47.8812209265
20	0x4048e64e98979998	49.7992735615
21	0x4048481223db30d0	48.563053590799996
22	0x4047dfaae94eede2	47.7474033008
23	0x4047fc37235157a6	47.970432677000005
24	0x4044cbbfdb758fac	41.591792518999995
25	0x4046989783e4087a	45.1921238769
26	0x404427cdc1855728	40.310966672999996

conv_b0_l2_bn_var f4 [1, 32, 1, 1]
0	0x3c614a6e	0.013750656
1	0x3b9659f9	0.0045883623
2	0x3d001bbb	0.031276446
3	0x3caa7c58	0.020811245
4	0x3c541206	0.01294375
5	0x00000004	6e-45
6	0x3ba75e97	0.0051077115
7	0x3c381137	0.011234573
8	0x3becaa95	0.0072224834
9	0x3beb485e	0.0071802577
10	0x3c84a745	0.016193042
11	0x3b937bc9	0.0045008403
12	0x3c5b39d4	0.0133804865
13	0x3babc895	0.005242417
14	0x3c20c05e	0.009811489
15	0x3b9b8a82	0.004746736
16	0x3c3b120d	0.011417878
17	0x3c0ab273	0.008465397
18	0x3c8397a3	0.016063517
19	0x3c85edd7	0.016348762
20	0x3bb2e7f6	0.005459781
21	0x3c3a0d27	0.011355675
22	0x3c82d0a6	0.015968632
23	0x3d0492c7	0.03236654
24	0x3c077873	0.008268463
25	0x3ca70f29	0.020392971
26	0x3cc5ef1a	0.024161864
27	0x00000004	6e-45
28	0x3bf4a7aa	0.007466276
29	0x3c777ffe	0.015106199
30	0x3c03121c	0.007999923
31	0x3c8e1fc4	0.017349131

conv_b2_l0_bn_mean f4 [1, 64, 1, 1]
0	0x0588b9ee	1.2857678e-35
1	0xbdba25ef	-0.090892665
2	0x3e26e688	0.16298878
3	0xbf17d9bc	-0.5931661
4	0xbde8ec00	-0.113731384
5	0xbe3ee1f8	-0.18640888
6	0x3daf7d4a	0.08568819
7	0xbe89142a	-0.26773196
8	0x3c9d4369	0.019197183
9	0xbc074a16	-0.00825741
10	0xbe60e7fb	-0.21963494
11	0x3f00a94f	0.50258344
12	0x3d90f9a3	0.070788644
13	0xbe4eb37a	-0.20185652
14	0xbe0e9036	-0.139222
15	0x3c762bbc	0.0150250755
16	0xbdb37c5b	-0.08763953
17	0x3dc16d1c	0.09444639
18	0xbe014ee6	-0.12627754
19	0x06a0566f	6.0312314e-35
20	0xbe806677	-0.25078174
21	0xbe4a3420	-0.19746447
22	0x3e1e90e1	0.15484954
23	0xbe1df535	-0.1542557
24	0x3d51e9ea	0.05124847
25	0x0620f9c0	3.0276143e-35
26	0x3e1b146e	0.15144512
27	0xbe3852a8	-0.18000281
28	0xbe242f5f	-0.16033696
29	0x3dee81cc	0.116458505
30	0x85f10fad	-2.266929e-35
31	0x3e4c791f	0.19968079
32	0x3d9e7738	0.07737583
33	0xbd171234	-0.036882594
34	0xbe5d1776	-0.21590981
35	0xbd2dd75f	-0.042441722
36	0xbe0ce2b9	-0.13758363
37	0x04f82b8d	5.8344515e-36
38	0x3e6334f9	0.22188176
39	0x3d0bac53	0.034099888
40	0x3e309efd	0.17248149
41	0x3e1802b3	0.1484478
42	0xbe0455b0	-0.12923312
43	0xbdd88371	-0.105719455
44	0xbe240de5	-0.16020925
45	0x3d6ab1c4	0.057298437
46	0x3e1e8da3	0.15483718
47	0x048642ff	3.1564775e-36
48	0x069f5c1a	5.9944484e-35
49	0x3e359b1a	0.17734948
50	0x05a452b7	1.545287e-35
51	0x3c8e7e48	0.0173942
52	0x3d3281bb	0.043580752
53	0xbe62a93c	-0.2213487
54	0x86be82ce	-7.1662257e-35
55	0x3ceff973	0.029293751
56	0x86f4f640	-9.214443e-35
57	0xbd1c3449	-0.0381358
58	0xbeba4635	-0.3638169
59	0x3e1d4055	0.15356572
60	0x3e9644bb	0.29349312
61	0xbe77a4bd	-0.24183936
62	0xbd233779	-0.039847825
63	0x3e9ea375	0.30984083

conv_b0_l0_bn_mean f4 [1, 32, 1, 1]
0	0xba95b280	-0.0011420995
1	0x3ba17b29	0.004928012
2	0xbc016ad9	-0.00789901
3	0xbbf5f32e	-0.007505796
4	0x3b0aeb7a	0.0021197484
5	0x3cb56769	0.022144036
6	0xbb411ca3	-0.0029466532
7	0xba73e4aa	-0.0009303788
8	0xbbb2a94e	-0.0054523116
9	0xbc077912	-0.0082686115
10	0x3bff87e4	0.007798182
11	0x3c479209	0.012180814
12	0xba8d8eee	-0.0010800043
13	0x82b070a8	-2.5925537e-37
14	0x3ae9a52f	0.0017825718
15	0x818e7a62	-5.233817e-38
16	0x82974ec9	-2.2232676e-37
17	0x3c2d27f8	0.010568611
18	0x3b6a2b20	0.003573127
19	0x8562eed5	-1.06703354e-35
20	0xbbbf1fea	-0.005832662
21	0xba45a605	-0.00075396925
22	0x3a71fb86	0.00092309003
23	0xbb9d9c06	-0.004809859
24	0x39b58dfb	0.00034628794
25	0xbc44e6c3	-0.0120179085
26	0x84f6aadd	-5.7991235e-36
27	0x3c04dc70	0.008109197
28	0x393ac51b	0.0001781177
29	0x3c7e46d3	0.0155198155
30	0x3c8cabe0	0.0171718
31	0xbc66acae	-0.014079256

conv_b2_l1_bn_mean f4 [1, 64, 1, 1]
0	0xbe39ab2d	-0.18131705
1	0xbd358fe9	-0.044326697
2	0x05d5368f	2.0050465e-35
3	0x3dc6c4de	0.09705518
4	0x3c93c38b	0.018037578
5	0x3e1d1215	0.15338929
6	0xbda7fe8a	-0.08202846
7	0x3d523c77	0.051327195
8	0xbd50b7aa	-0.050956406
9	0xbe0348d1	-0.12820746
10	0x3e113343	0.14179711
11	0x062fa214	3.3032918e-35
12	0x3e6dcb07	0.2322198
13	0x3e111ed0	0.1417191
14	0xbdcd7db3	-0.10033741
15	0xbe3be8ab	-0.18350475
16	0xbe018298	-0.12647474
17	0x3db91a00	0.09038162
18	0xbdae4a1d	-0.0851023
19	0xbd5c97e9	-0.05385581
20	0x3db2db9d	0.08733294
21	0x3d9bfdeb	0.076167904
22	0x058e2770	1.3368103e-35
23	0xbd49d833	-0.04927845
24	0x3d8d9979	0.06914038
25	0xbd864ee7	-0.06558018
26	0xbd094ce8	-0.03352061
27	0xbdda6167	-0.10663109
28	0x3dab93a0	0.083777666
29	0x3d8e03c2	0.069343105
30	0x3d3237d0	0.04351026
31	0x3c40ec3e	0.0117750745
32	0x3ad2758b	0.0016056759
33	0xbc76c129	-0.015060701
34	0xbd9bb5c7	-0.07603031
35	0x3c964ebf	0.018348096
36	0xbcb0b060	-0.021568477
37	0xbd9fdff2	-0.07806386
38	0xbd48d622	-0.049032338
39	0xbe7685b8	-0.24074447
40	0x85c63446	-1.8639033e-35
41	0xbd5a9a76	-0.05336996
42	0x3d852fc4	0.06503251
43	0xbd3653b2	-0.04451341
44	0xbd029514	-0.031880453
45	0x3d2f10ce	0.042740636
46	0x0684eb24	4.999839e-35
47	0xbe3421f7	-0.17591082
48	0xbd8ac068	-0.0677498
49	0xb9888308	-0.00026037567
50	0x3bacb352	0.0052704
51	0xbdbb00b1	-0.09130991
52	0x3c9fb17c	0.01949381
53	0xbd9edf0e	-0.07757388
54	0xbac8be44	-0.0015315493
55	0x3b4b952e	0.003106426
56	0x3c06c467	0.008225537
57	0x3e582632	0.2110832
58	0x3d1fe1a4	0.039033547
59	0xbc91d350	-0.017800957
60	0xbe29b77f	-0.16573904
61	0xbbb7d8be	-0.0056105545
62	0xbe5a5e6a	-0.21325079
63	0x0615db97	2.8185114e-35

conv_b3_l0_bn_mean f4 [1, 128, 1, 1]
0	0x0590d070	1.3618263e-35
1	0x3d8bc2c0	0.06824255
2	0xbd8e8965	-0.069598
3	0xbe30e778	-0.17275798
4	0xbe68d17f	-0.22736166
5	0xbe15e2b2	-0.14637259
6	0x3cc21952	0.023693714
7	0x85829b51	-1.2282195e-35
8	0xbdad56f4	-0.084638506
9	0xbde383f6	-0.11109154
10	0x3e888c8c	0.2666973
11	0xbd6fca9e	-0.05854284
12	0xbe4c2b59	-0.19938411
13	0x3d8f67ad	0.070021965
14	0xb9f6f3a7	-0.00047102312
15	0xbe8b7cb1	-0.2724357
16	0xba629ddc	-0.00086447387
17	0xbdd6b477	-0.1048364
18	0x3d6d5a87	0.05794766
19	0xbe28d6b8	-0.16488159
20	0xbe5f2e5d	-0.2179503
21	0x3c891cbf	0.01673734
22	0xbd52004c	-0.051269814
23	0x3e45de86	0.19323167
24	0x0690008e	5.4167595e-35
25	0xbdbf03ae	-0.09326874
26	0x3e47aed7	0.1950029
27	0xbb546459	-0.0032408445
28	0x3dac6d73	0.08419313
29	0x3d3fe690	0.04685074
30	0x3dbdbd72	0.092646495
31	0x3e468e97	0.19390331
32	0xbbcc1c62	-0.0062289694
33	0x3c69e513	0.014275807
34	0xbe25c441	-0.16188146
35	0xbe952232	-0.2912765
36	0x3dcdedc1	0.100551136
37	0x0674aed4	4.6019743e-35
38	0x3cba67c5	0.02275456
39	0xbdee8066	-0.11645584
40	0x3dd2dacf	0.10295641
41	0x84d0f034	-4.9121157e-36
42	0xbea53d5c	-0.32273376
43	0x3e327e46	0.17430982
44	0xbd227d16	-0.039670072
45	0x3c98b4fe	0.018640991
46	0xbd03f6cf	-0.032217797
47	0x3ec465ef	0.3835902
48	0xbe338f00	-0.17535019
49	0x3e567eaa	0.20946756
50	0x3dd5d569	0.104410954
51	0x3dbdaf47	0.09261947
52	0x3e01c4d0	0.12672734
53	0x3e97e44e	0.2966637
54	0xbb67dbfd	-0.0035378926
55	0xbcc387bb	-0.023868432
56	0xbeaadc06	-0.3337099
57	0xbe52aec4	-0.2057448
58	0x3da925c4	0.08259156
59	0xbcec760e	-0.028864887
60	0xbddc5fd6	-0.10760467
61	0xbe86ef06	-0.26354235
62	0x3b57521f	0.0032855344
63	0x3d16ba41	0.03679872
64	0xbe18b040	-0.14910984
65	0x3e117e6a	0.1420838
66	0x3e5ea0d7	0.21741043
67	0xbbcd1fa8	-0.0062598772
68	0xbda18202	-0.07886125
69	0xbd7dd351	-0.061969105
70	0x3d64d75e	0.055869453
71	0xbe472cd3	-0.19450693
72	0x3e14e1e7	0.145393
73	0x3caaa7b4	0.02083192
74	0x3def4786	0.11683564
75	0xbd69b4da	-0.05705724
76	0x3bcf134f	0.0063194404
77	0x3e0d6652	0.13808563
78	0xbe43521c	-0.19074291
79	0xbdae2d86	-0.08504777
80	0x3c0a209c	0.008430626
81	0x3d7da448	0.06192425
82	0xbd2069f6	-0.039163552
83	0xbe9f1f88	-0.31078744
84	0x3c3421cb	0.010994385
85	0x3de18292	0.110112324
86	0x3d4c2273	0.04983754
87	0x3e751465	0.23933561
88	0xbe4bc0c1	-0.19897749
89	0x3efa2e2e	0.48863357
90	0x8661767d	-4.2404848e-35
91	0xbd4f9623	-0.05068029
92	0xbddc5587	-0.107585005
93	0x3c03d462	0.0080462415
94	0x3d756df3	0.05991931
95	0xbdf5a883	-0.11995032
96	0x3d41ed60	0.04734552
97	0x3b9aaa0b	0.0047199777
98	0xbe5292bc	-0.20563787
99	0x0675ca50	4.6228014e-35
100	0xbe96c30b	-0.2944568
101	0x3dfcd4b2	0.12345256
102	0x3d52b4b4	0.051441863
103	0x3e70b7e6	0.23507652
104	0x86b42860	-6.77678e-35
105	0xbd1e10b4	-0.038590148
106	0x3c9377fb	0.018001547
107	0x863163b0	-3.336324e-35
108	0x3c25b89e	0.010114817
109	0xbd16a03f	-0.036773916
110	0x840d1d90	-1.6588045e-36
111	0x3e3a55b6	0.18196759
112	0xbdb1b236	-0.08676569
113	0xbd936cc4	-0.0719848
114	0x06004419	2.4124155e-35
115	0xbe6482de	-0.22315547
116	0xbdf0de4d	-0.117611505
117	0x3d7c93dc	0.061664447
118	0x3dae7259	0.08517904
119	0x3e1c0231	0.15235211
120	0x3dec1c72	0.11528863
121	0xbca0ee14	-0.019644774
122	0xbddee6f8	-0.108838975
123	0xbe5cd90d	-0.21567173
124	0xbda3aa85	-0.079915084
125	0x3e8a7e3b	0.2704943
126	0x3e499894	0.1968711
127	0xbd3b49e4	-0.045724764

conv_b1_l1_bn_var f4 [1, 64, 1, 1]
0	0x00000004	6e-45
1	0x3c9e0e54	0.019293942
2	0x3c5a734e	0.013333155
3	0x3c29abbd	0.010355887
4	0x3c15f214	0.009151954
5	0x3c480f1d	0.012210635
6	0x3c55609c	0.013023522
7	0x3c02e740	0.007989705
8	0x00000004	6e-45
9	0x3c8555f3	0.016276335
10	0x3c435de3	0.01192424
11	0x3c8e6dcc	0.01738634
12	0x3c7ccb3e	0.015429316
13	0x00000004	6e-45
14	0x3c680037	0.0141602075
15	0x3c1b2e24	0.00947145
16	0x3c372394	0.011177916
17	0x3ca5cec1	0.02024019
18	0x3c8a7e65	0.016905973
19	0x3c3da956	0.011576017
20	0x3c12c64d	0.008958411
21	0x00000004	6e-45
22	0x3baee24b	0.005337035
23	0x3c94f95d	0.018185312
24	0x3c8e4a53	0.017369425
25	0x3c3b7d42	0.011443438
26	0x3c7940a1	0.015213163
27	0x3782a634	1.5574602e-05
28	0x3c82e9ad	0.015980566
29	0x3ca34d13	0.019934213
30	0x00000004	6e-45
31	0x3c0f5040	0.00874716
32	0x3c23d175	0.009998669
33	0x3c5d80c5	0.013519471
34	0x3c08ee77	0.008357636
35	0x3c3df09d	0.011593011
36	0x3c869b9e	0.016431626
37	0x3bd1ca01	0.0064022546
38	0x3bc73a9a	0.006079984
39	0x00000004	6e-45
40	0x3c292f69	0.010326245
41	0x3c2ea63a	0.010659749
42	0x3c505dcb	0.0127176745
43	0x3c9885cc	0.018618487
44	0x3c4c1e74	0.0124584325
45	0x3c64afbf	0.013957917
46	0x3c98d665	0.018656919
47	0x3c8f1667	0.017466737
48	0x3c21551b	0.009846951
49	0x3c3fc5d6	0.011704883
50	0x3c40058f	0.011720075
51	0x3c90dd72	0.017683718
52	0x00000004	6e-45
53	0x3c9e5ade	0.019330438
54	0x3cb36854	0.021900333
55	0x3c17da20	0.009268314
56	0x00000004	6e-45
57	0x3c87857b	0.01654314
58	0x3cc3d270	0.023904055
59	0x3cd3e258	0.025864765
60	0x3c1a32b5	0.009411504
61	0x3cd880f4	0.026428677
62	0x3c41b5cd	0.01182313
63	0x3cbf9a6a	0.02338906

conv_b0_l3_bn_var f4 [1, 32, 1, 1]
0	0x3c1c3600	0.009534359
1	0x3c2206a6	0.00988928
2	0x00000004	6e-45
3	0x3c7a0c7a	0.015261764
4	0x3c7e7bd4	0.015532453
5	0x3c5311bc	0.012882646
6	0x3be977cf	0.007124878
7	0x00000004	6e-45
8	0x3c894662	0.016757194
9	0x3c6ed4b2	0.014577078
10	0x3c9e3414	0.019311942
11	0x3c919930	0.01777324
12	0x3c6cc09d	0.014450219
13	0x3ca0a022	0.019607607
14	0x3ca7d7ff	0.020488737
15	0x3cb28096	0.02178983
16	0x3cc01049	0.023445265
17	0x3ca939f7	0.020657523
18	0x3c95907e	0.018257376
19	0x3c60814a	0.0137027
20	0x3ce97977	0.028500302
21	0x3c995372	0.018716548
22	0x3c1f28e7	0.009714342
23	0x00000004	6e-45
24	0x3c617b41	0.013762296
25	0x3c95396b	0.018215856
26	0x3c2f1c95	0.010687967
27	0x3bdf8975	0.006821806
28	0x3c7c242e	0.015389485
29	0x3c730e69	0.014834979
30	0x3cb07445	0.021539817
31	0x3c08328a	0.008312831

conv_b0_l2_bn_mean f4 [1, 32, 1, 1]
0	0x3d5be6dc	0.05368696
1	0x3ce91954	0.02845446
2	0x3d404134	0.046937183
3	0xbe08ba0d	-0.13352223
4	0x3d819bad	0.06328521
5	0x064522ea	3.7077233e-35
6	0x3b254175	0.0025216017
7	0xbc6343e9	-0.0138711715
8	0x3d436cb3	0.047711086
9	0xbd307b60	-0.04308641
10	0x3d91f3b4	0.07126561
11	0x3d989a57	0.07451313
12	0x3c74e96b	0.014948229
13	0xbdb73d66	-0.08947258
14	0xbcd9c026	-0.026580881
15	0xbdad8dc0	-0.08474302
16	0xbcbff384	-0.023431547
17	0xbbb2d5a0	-0.005457595
18	0xbd73193c	-0.059350237
19	0x3dbb3011	0.09140027
20	0x3b940501	0.004517198
21	0x3d6abece	0.05731087
22	0xbd52b8db	-0.051445823
23	0x3d7ea4ef	0.06216901
24	0x3e09fcc9	0.13475336
25	0x3b4e8631	0.003151309
26	0x3c4997eb	0.0123042865
27	0x06c49895	7.3951205e-35
28	0x3d429beb	0.047511976
29	0x3c6ea104	0.014564756
30	0xbc14d49a	-0.009083891
31	0x3d9ff4c4	0.07810357

conv_b0_l3_bn_mean f4 [1, 32, 1, 1]
0	0x3d0841fc	0.033266053
1	0xbac8a855	-0.0015308956
2	0x8431ea72	-2.0913902e-36
3	0xbd2bd19c	-0.041947946
4	0xbd2cb81e	-0.042167775
5	0xbe2e1d87	-0.17003451
6	0x3c421f00	0.011848211
7	0x05df6dae	2.1011109e-35
8	0x3e436d9e	0.19084784
9	0xbd38f782	-0.045157917
10	0x3db5cdff	0.08877181
11	0x3d1c6554	0.03818257
12	0x3dd9e3d5	0.10639159
13	0x3c75f3fd	0.015011785
14	0xbca244d2	-0.019808207
15	0xbd23f642	-0.04002977
16	0x3cf54ee5	0.029944846
17	0x3bf5354d	0.0074831606
18	0xbd5b3571	-0.053517763
19	0xbca12ca7	-0.019674612
20	0x3cbc7924	0.023006983
21	0x3d86e636	0.06586878
22	0xbc76230c	-0.015023004
23	0x860c6482	-2.6404915e-35
24	0x3dc133e5	0.09433726
25	0x3dcf149c	0.10111353
26	0xbdac6229	-0.0841716
27	0xbc4cf595	-0.012509723
28	0x3da81d3b	0.082087
29	0x3dd28883	0.10279944
30	0x3e1b4097	0.15161358
31	0xbc914fa5	-0.017738173

conv_b3_l3_bn_var f4 [1, 128, 1, 1]
0	0x3bb32569	0.005467106
1	0x3b9e92ac	0.004839262
2	0x3ba4b7fc	0.0050268155
3	0x3c18737e	0.009304879
4	0x3bbadf97	0.0057029235
5	0x3c02f773	0.007993567
6	0x00000004	6e-45
7	0x3ba60cee	0.0050674593
8	0x3bb0fe2f	0.005401395
9	0x3bed83b6	0.007248367
10	0x3c0d75b6	0.0086340215
11	0x3c18b13a	0.009319598
12	0x3baaade6	0.0052087186
13	0x3c0b372e	0.008497043
14	0x3c014347	0.007889575
15	0x3bec0e5d	0.0072038607
16	0x3bb8245f	0.00561957
17	0x3bfb8c12	0.00767661
18	0x3c06a53f	0.008218109
19	0x3b9285e7	0.004471529
20	0x3bebc477	0.0071950513
21	0x3b717889	0.0036845526
22	0x3b9703de	0.0046086153
23	0x3c64abef	0.013957008
24	0x3bc55520	0.0060221106
25	0x3b9a2478	0.0047040544
26	0x3c24fd2c	0.0100701265
27	0x3b91fb63	0.0044550165
28	0x3bc3904e	0.00596813
29	0x3bd02388	0.006351892
30	0x3bcc9043	0.0062427833
31	0x3bb68272	0.0055697495
32	0x3ba4939c	0.005022479
33	0x3c8d7f36	0.017272573
34	0x3bbf601a	0.0058403136
35	0x3bf14f6f	0.0073642056
36	0x3b87b3c1	0.0041413014
37	0x3b8dfd69	0.0043331874
38	0x3b8b6f73	0.004255229
39	0x3c0e5e15	0.008689423
40	0x3bb49f36	0.0055121435
41	0x3c040850	0.0080586225
42	0x3b9d17bd	0.0047940896
43	0x3b8ad643	0.004236968
44	0x00000004	6e-45
45	0x3bc871fe	0.0061171046
46	0x3bf66564	0.007519411
47	0x3c397efe	0.011321781
48	0x3bb4d46c	0.0055184867
49	0x3bf51d8a	0.007480328
50	0x3bc63512	0.006048807
51	0x3c0c3f98	0.008560084
52	0x00000004	6e-45
53	0x3bdd4ce5	0.0067535513
54	0x3b9783a6	0.004623848
55	0x3bb9fa8f	0.005675621
56	0x3bcbb96f	0.0062171738
57	0x3c0ac216	0.008469125
58	0x3bb843b3	0.0056233048
59	0x3b9c748d	0.004774636
60	0x3bb88a2c	0.0056317057
61	0x00000004	6e-45
62	0x3ba68f28	0.0050829835
63	0x3bb1e692	0.0054290975
64	0x3b8a28f2	0.004216307
65	0x3b79394b	0.0038028534
66	0x3ba12d07	0.0049186978
67	0x3bb6c635	0.0055778273
68	0x3ba80f8f	0.005128808
69	0x3b976b09	0.004620914
70	0x3bdb2712	0.006688007
71	0x3bbf7f6f	0.0058440487
72	0x3bbd1acc	0.0057710167
73	0x3b98b2cf	0.0046599875
74	0x3bbf4493	0.005837032
75	0x00000004	6e-45
76	0x3ba55883	0.005045952
77	0x3b8fb63d	0.004385738
78	0x3bba5fab	0.005687674
79	0x3c2b13f8	0.010441773
80	0x3ba99d99	0.005176258
81	0x3bc3da4a	0.00597695
82	0x3b82dc1d	0.0039935247
83	0x3ba1bf4a	0.0049361335
84	0x00000004	6e-45
85	0x3bdb6e73	0.006696516
86	0x3bd5f95a	0.006529969
87	0x3cb53b0b	0.02212288
88	0x3ba87115	0.0051404336
89	0x3baf7fa5	0.0053557926
90	0x3bd110e9	0.0063801897
91	0x3ba859ba	0.0051376494
92	0x3bc5d637	0.0060374993
93	0x3bba9896	0.005694459
94	0x3bdca395	0.0067333677
95	0x3c317e5e	0.010833351
96	0x3badf1f3	0.0053083836
97	0x3ba62f22	0.0050715366
98	0x3ba28cb9	0.004960623
99	0x3b78997a	0.0037933276
100	0x3b8057e3	0.003916727
101	0x3bafd2d7	0.0053657102
102	0x3bb0efaf	0.0053996663
103	0x3c0629dd	0.008188692
104	0x3c3bb49d	0.011456636
105	0x3bb082fb	0.005386708
106	0x3baa35da	0.005194408
107	0x3b8f5f16	0.004375349
108	0x3c2298b1	0.0099241
109	0x3ba029b0	0.004887782
110	0x00000004	6e-45
111	0x3c81961e	0.015818652
112	0x3bcbd316	0.0062202318
113	0x3c285cdc	0.010276046
114	0x00000004	6e-45
115	0x3b9360d3	0.0044976263
116	0x3b97e54d	0.004635489
117	0x3ba6bcb6	0.005088414
118	0x3b9c270e	0.004765398
119	0x3be4ba00	0.0069801807
120	0x3b8aded9	0.0042379913
121	0x3b9ef5da	0.004851085
122	0x3ba37330	0.0049880967
123	0x3bf2d505	0.007410648
124	0x3bbee1ad	0.0058252425
125	0x3c922f46	0.017844807
126	0x3bb9e291	0.005672761
127	0x3c06ac33	0.008219766

conv_b2_l3_bn_var f4 [1, 64, 1, 1]
0	0x3c9c3b23	0.019071167
1	0x3cba364b	0.022730967
2	0x3cb10c01	0.02161217
3	0x3c61e585	0.013787632
4	0x3d03c1c3	0.032167207
5	0x3cd491cc	0.025948428
6	0x3c6c4fe9	0.014423349
7	0x00000004	6e-45
8	0x3ccf0ec2	0.025275592
9	0x3c25502f	0.010089918
10	0x3c362489	0.011117109
11	0x00000004	6e-45
12	0x3cf0cf1f	0.029395638
13	0x00000004	6e-45
14	0x3ca1055f	0.019655881
15	0x3cae0820	0.021244109
16	0x3bd700a7	0.006561357
17	0x3c6180d7	0.013763628
18	0x00000004	6e-45
19	0x3c2055db	0.009786095
20	0x00000004	6e-45
21	0x3cf39d3f	0.029738067
22	0x3c8540f9	0.016266333
23	0x3c49a650	0.012307718
24	0x00000004	6e-45
25	0x3caa1852	0.02076355
26	0x3cc1691c	0.02360969
27	0x3c4da57e	0.012551663
28	0x3cb9cbce	0.02268019
29	0x3ca81e76	0.020522337
30	0x3d1d4e34	0.03840466
31	0x3c305775	0.010763039
32	0x00000004	6e-45
33	0x00000004	6e-45
34	0x3ca2ed02	0.019888405
35	0x3ca3a85e	0.019977745
36	0x3c4ee8b0	0.012628719
37	0x3c86deb4	0.016463615
38	0x00000004	6e-45
39	0x3c8d3476	0.01723693
40	0x3cb8d79f	0.022563754
41	0x3c639bd0	0.013892129
42	0x3c4224aa	0.011849562
43	0x3cbd95aa	0.023142654
44	0x00000004	6e-45
45	0x3c1a0d8b	0.009402643
46	0x3cc6a040	0.024246335
47	0x3c7588ae	0.0149862
48	0x00000004	6e-45
49	0x3ce7d8e8	0.028301671
50	0x3c81ee4d	0.015860701
51	0x3c8d9c39	0.017286407
52	0x3d0b0875	0.033943612
53	0x3ca25f6f	0.019820897
54	0x3c7b7ee6	0.015350079
55	0x3c717430	0.014737174
56	0x3c75285f	0.0149632385
57	0x3cb478b6	0.022030216
58	0x3cd5d607	0.026103033
59	0x3c021013	0.007938403
60	0x3c81dcb3	0.015852308
61	0x3ccfe0dc	0.025375776
62	0x3c4e5557	0.012593589
63	0x3c81cdeb	0.01584526

conv_b1_l2_bn_var f4 [1, 64, 1, 1]
0	0x00000004	6e-45
1	0x37d0b5bf	2.4880164e-05
2	0x3c1c5fcd	0.009544325
3	0x3c579268	0.013157465
4	0x3c6f97cd	0.0146235945
5	0x3ca314aa	0.019907314
6	0x3cd64afb	0.0261588
7	0x3cf03fb7	0.029327257
8	0x3d05e4d7	0.03268894
9	0x3c7c5390	0.015400782
10	0x3c8ee700	0.017444134
11	0x3c92f5bf	0.017939446
12	0x00000004	6e-45
13	0x3c904f6a	0.017615993
14	0x3c62573b	0.013814743
15	0x3c703332	0.014660643
16	0x3c485f2b	0.012229721
17	0x3c9f1488	0.01941897
18	0x3c538750	0.012910679
19	0x3ca988da	0.020695139
20	0x3d151371	0.036395494
21	0x3c7ffafc	0.015623804
22	0x2daa4e49	1.9361528e-11
23	0x3cefd64b	0.029276988
24	0x00000004	6e-45
25	0x3d3a35cc	0.04546146
26	0x3c6ec5c9	0.014573523
27	0x3cb13821	0.02163321
28	0x3c6721d0	0.014107183
29	0x3c96c046	0.01840223
30	0x3c887d44	0.016661294
31	0x3caac049	0.020843642
32	0x3ccc5ef0	0.024947613
33	0x3cd84a39	0.02640258
34	0x3c6983a6	0.014252579
35	0x00000004	6e-45
36	0x3cd817ef	0.0263786
37	0x3cc95e61	0.024581136
38	0x3c682a00	0.01417017
39	0x3d075d22	0.033047803
40	0x3cc761c0	0.024338603
41	0x3cba01f3	0.022706008
42	0x00000004	6e-45
43	0x3c834069	0.016021924
44	0x3cab09cd	0.020878697
45	0x3ca8ed95	0.0206211
46	0x3c8b59bb	0.01701056
47	0x3c455b7f	0.01204574
48	0x3cfc67f1	0.030811282
49	0x3c905f13	0.01762346
50	0x3bc4f8a7	0.006011087
51	0x3c91e185	0.017807731
52	0x3c547cbc	0.012969192
53	0x3c139244	0.00900704
54	0x3bfa0b02	0.0076307068
55	0x00000004	6e-45
56	0x00000004	6e-45
57	0x3d08197b	0.033227425
58	0x00000004	6e-45
59	0x00000004	6e-45
60	0x3ca34ceb	0.019934138
61	0x3caf38c3	0.02138937
62	0x3d1ee3c0	0.038791418
63	0x3c8656f3	0.016398882

conv_b2_l3_bn_mean f4 [1, 64, 1, 1]
0	0x3da4bf05	0.080442466
1	0x3e0a9b3f	0.13535784
2	0x3d6eaaff	0.058268543
3	0xbe427fe0	-0.18994093
4	0xbe8b6a5c	-0.27229583
5	0x3d8849dd	0.06654713
6	0xbe7241ea	-0.23657957
7	0x85a26c27	-1.5274136e-35
8	0xbd64ac17	-0.05582818
9	0x3e5da521	0.21645023
10	0xbd56855e	-0.052373283
11	0x061a6d4d	2.9044482e-35
12	0x3e08581d	0.13314863
13	0x0678f4a7	4.6823358e-35
14	0xbdf9dfb5	-0.12200872
15	0x3d5faf28	0.0546104
16	0x3dff4731	0.124647506
17	0x3e877403	0.26455697
18	0x85dc1a06	-2.069826e-35
19	0x3e151d2e	0.14561912
20	0x064a9e1e	3.8108144e-35
21	0x3b9a39d1	0.0047065993
22	0x3e1f6862	0.15567163
23	0xbd02a09c	-0.03189145
24	0x0686aeed	5.066223e-35
25	0x3e8d5461	0.27603438
26	0xbe1009e9	-0.1406628
27	0x3e73b38a	0.23798957
28	0x3c9c58eb	0.019085368
29	0x3ed8b1f9	0.42323282
30	0xbd029f24	-0.03189005
31	0xbd9817ce	-0.074264154
32	0x050f3d7b	6.73512e-36
33	0x0645ebaa	3.722472e-35
34	0x3d91fbac	0.07128081
35	0x3caf7296	0.021416944
36	0x3e0875b9	0.13326158
37	0xbd51a329	-0.051180992
38	0x851d746f	-7.40349e-36
39	0x3d36d8f4	0.044640496
40	0xbe6947a9	-0.22781242
41	0x3dfdfee8	0.12402135
42	0x3d0f9b5d	0.035060275
43	0xbdc1d43b	-0.09464308
44	0x85c93b09	-1.8923635e-35
45	0xbd38a49f	-0.04507887
46	0x3e9cc4d9	0.30618933
47	0x3c940596	0.01806907
48	0x0573711b	1.1446579e-35
49	0x3e892c07	0.26791403
50	0x3ea2ea87	0.31819555
51	0x3d9fcec5	0.0780311
52	0xbc584728	-0.013200559
53	0xbe53f71b	-0.20699732
54	0x3e80b66a	0.2513917
55	0x3e270f60	0.16314459
56	0x3e5a2554	0.21303302
57	0x3c9ba983	0.019001728
58	0xbbf53955	-0.007483641
59	0xbe005b3b	-0.12534802
60	0xbe08835f	-0.13331364
61	0xbe8a7900	-0.2704544
62	0xbd0c99df	-0.03432643
63	0x3d8b9cee	0.06817041

conv_b3_l1_bn_mean f4 [1, 128, 1, 1]
0	0xbc380c81	-0.01123345
1	0x833d65ea	-5.56591e-37
2	0xbd628ecd	-0.055311967
3	0xbe10f143	-0.14154534
4	0x3db0efe9	0.08639509
5	0x05ac8644	1.6224124e-35
6	0x3cef68d7	0.029224796
7	0xbe5d53b5	-0.21613963
8	0xbdd2527e	-0.102696404
9	0xbd93e9fd	-0.07222364
10	0xbe0573bc	-0.1303243
11	0xbd7b4e0e	-0.061353736
12	0xbe2b4fd0	-0.16729665
13	0x3d338432	0.043827243
14	0xbe3c909d	-0.1841454
15	0x3e462737	0.19350897
16	0xbe880cd2	-0.2657228
17	0x3bcf16c0	0.0063198507
18	0xbd926a58	-0.0714919
19	0x3addad2d	0.0016912572
20	0x3e31c296	0.17359385
21	0xbdc70a86	-0.09718804
22	0x860fbedd	-2.7035535e-35
23	0x3e1fba5c	0.15598434
24	0xbcdcbca1	-0.026945414
25	0x3d15e60f	0.036596354
26	0xbc70a580	-0.014687896
27	0x3e423b79	0.18968
28	0xbe03fb45	-0.1288882
29	0xbdc08fbd	-0.09402416
30	0x3dba3cb2	0.09093608
31	0xbe3877e1	-0.1801448
32	0xbd65691e	-0.05600845
33	0x3d4985dd	0.049199928
34	0xbddfb21e	-0.10922645
35	0x3d458a8f	0.048227843
36	0xbe3e865e	-0.18605945
37	0x05e115c3	2.1166892e-35
38	0xbe133df0	-0.14379096
39	0x3ddaa15a	0.106753066
40	0x3da505c8	0.08057743
41	0xbd0e50e3	-0.03474511
42	0xbe14c51b	-0.14528315
43	0x3dceb03a	0.10092206
44	0xbd4b2921	-0.04959977
45	0x3e17a6ca	0.14809719
46	0x3e3b7b2f	0.1830871
47	0xbdb5b55c	-0.08872482
48	0xbd8719c1	-0.06596709
49	0xbdbf1924	-0.09330967
50	0x3d222e7c	0.039595112
51	0x3dff07d5	0.12452666
52	0x3da29857	0.07939213
53	0x3e22f7a7	0.15914784
54	0x3dad407f	0.08459567
55	0x04a8f718	3.972353e-36
56	0x3dbf7bf1	0.09349812
57	0x064d210d	3.8580497e-35
58	0x3ca6967d	0.02033543
59	0x3c9db907	0.019253267
60	0x3e1a386a	0.15060583
61	0xbe3f91a7	-0.18707906
62	0x0632599d	3.3543917e-35
63	0x3e15f548	0.14644349
64	0x3ded4fde	0.11587499
65	0x3e100b33	0.14066772
66	0x3ca9101a	0.02063756
67	0x3dc809a0	0.09767461
68	0x3e24e4ce	0.16102907
69	0x86524af9	-3.955169e-35
70	0x068d64ed	5.31866e-35
71	0x3de78a5a	0.11305685
72	0xbdcdcd8c	-0.100489706
73	0xbc073f26	-0.008254802
74	0xbdd3d243	-0.103428386
75	0xbe05e1f7	-0.1307448
76	0xbd80b9f3	-0.06285467
77	0xbd08ab98	-0.03336677
78	0x3d58bfd1	0.052917305
79	0xbdd55e2a	-0.10418351
80	0xbd7f4033	-0.062317085
81	0xbe3d6e47	-0.18499099
82	0x3d08f2fe	0.03343486
83	0xbdd489bb	-0.103778325
84	0xbdc851e3	-0.09781244
85	0x063a1907	3.50011e-35
86	0x3c974677	0.018466217
87	0x3e12054f	0.14259838
88	0x3e40c5cc	0.18825454
89	0xbc6f47b5	-0.014604499
90	0x3dd84fc5	0.1056209
91	0x83d7c2c0	-1.2681277e-36
92	0xbdd909f8	-0.105976045
93	0xbdabfa30	-0.08397329
94	0xbc393bca	-0.011305759
95	0x86b4a84a	-6.7955753e-35
96	0xbd9a19d1	-0.07524455
97	0x3b3dce09	0.0028961918
98	0xbdbe5f4b	-0.092955194
99	0x3de8f9bd	0.11375759
100	0x05036c92	6.1795316e-36
101	0xbe21c4ce	-0.15797731
102	0xbdfead37	-0.12435382
103	0x3c792481	0.015206457
104	0x0620f8e3	3.0275508e-35
105	0x3d69f166	0.05711498
106	0xbe021f8a	-0.12707344
107	0x3e146770	0.14492583
108	0x3dda993b	0.10673758
109	0xbd4bcf79	-0.04975841
110	0xbdbeb903	-0.09312632
111	0xbdda7345	-0.10666517
112	0x3db6f982	0.089343086
113	0xbdf2b117	-0.118501835
114	0xbe0ed7ed	-0.13949557
115	0x861b0596	-2.9156364e-35
116	0xbd963a35	-0.07335321
117	0xbd1aab4f	-0.03776103
118	0xbdcbf119	-0.09958095
119	0xbb916695	-0.0044372776
120	0xbc6d8a22	-0.014498265
121	0x3d815fcb	0.06317099
122	0x0504b5ac	6.239978e-36
123	0x3e3ec038	0.18628013
124	0xbe219741	-0.15780355
125	0xbd7a43f6	-0.06109997
126	0x3d9968e8	0.074907124
127	0x3d92b896	0.07164113

conv_b2_l2_bn_var f4 [1, 64, 1, 1]
0	0x3c4e3fbf	0.01258844
1	0x00000004	6e-45
2	0x3c8c7237	0.017144306
3	0x3c44882e	0.011995358
4	0x3cf92ef2	0.030417893
5	0x3c5aaf89	0.013347515
6	0x3c88d8ec	0.016704999
7	0x3c6f0491	0.014588491
8	0x3c64d5b7	0.013966969
9	0x3c19dc0c	0.009390842
10	0x3c5649c1	0.013079108
11	0x3c0ac75a	0.008470381
12	0x00000004	6e-45
13	0x3c80bcbc	0.015714996
14	0x3c9e4e38	0.019324407
15	0x3c4d9369	0.012547352
16	0x00000004	6e-45
17	0x3cb49ab4	0.022046424
18	0x3c84a396	0.016191285
19	0x3c5564b0	0.013024494
20	0x3c953e80	0.018218279
21	0x3cf01a49	0.029309409
22	0x3c1a9c0a	0.009436617
23	0x3c8c6330	0.01713714
24	0x3cb4be28	0.02206333
25	0x00000004	6e-45
26	0x3cb21998	0.02174072
27	0x3cae88b8	0.021305427
28	0x3cef2af9	0.029195296
29	0x00000004	6e-45
30	0x3bacdf5c	0.00527565
31	0x3c184fba	0.009296352
32	0x3c8e4449	0.017366545
33	0x3c9ba4df	0.018999515
34	0x3c026ed7	0.007960997
35	0x3c2ef744	0.01067907
36	0x3cbc9c20	0.023023665
37	0x3c85d6c0	0.016337752
38	0x3c525ca2	0.012839468
39	0x3c99873e	0.018741246
40	0x3ca6379c	0.020290188
41	0x3c29193b	0.010320957
42	0x3c2f1e25	0.010688339
43	0x3ce762ff	0.028245447
44	0x3c57d9a0	0.013174444
45	0x3c268543	0.010163608
46	0x3cb199aa	0.021679718
47	0x3c7ac53c	0.015305813
48	0x3c29671a	0.010339523
49	0x3c37baee	0.011214001
50	0x00000004	6e-45
51	0x3c555ff8	0.013023369
52	0x3c94d624	0.018168516
53	0x3ccb1b4e	0.024793293
54	0x3cdf187e	0.027233358
55	0x3c50ba35	0.012739708
56	0x3c5153bc	0.0127763115
57	0x3c879a81	0.016553165
58	0x3ca98ebf	0.02069795
59	0x3c45e551	0.012078599
60	0x3c5d7b09	0.013518103
61	0x3c8738cd	0.016506577
62	0x3cd46931	0.025929065
63	0x3cb4817a	0.022034395

conv_b0_l1_bn_var f4 [1, 32, 1, 1]
0	0x1dd976c8	5.756224e-21
1	0x3d0305f0	0.031988084
2	0x3c877eeb	0.016540011
3	0x3c897647	0.016780032
4	0x3c292b3e	0.010325251
5	0x00000004	6e-45
6	0x3c19751b	0.009366299
7	0x3c8518d7	0.016247196
8	0x3be3984e	0.0069456464
9	0x3cb8f988	0.022579923
10	0x3c590b3b	0.013247306
11	0x3c0eee0d	0.008723748
12	0x3c61b43f	0.013775884
13	0x00000004	6e-45
14	0x3b2c09a2	0.0026250859
15	0x3bd13ea1	0.00638564
16	0x3c7273ec	0.014798146
17	0x3c49c50d	0.012315047
18	0x3c84b705	0.016200552
19	0x3c85d5a2	0.01633722
20	0x3cae1ecc	0.02125492
21	0x3c88bf72	0.01669285
22	0x3c4612db	0.012089456
23	0x3cafcbe2	0.021459524
24	0x3b333788	0.0027346332
25	0x3c19c321	0.009384901
26	0x3c17ad97	0.009257696
27	0x3c0ac077	0.008468739
28	0x2af3542d	4.322388e-13
29	0x38d69510	0.0001023208
30	0x3c47d56d	0.012196881
31	0x3cd3054c	0.025759362

conv_b3_l1_bn_var f4 [1, 128, 1, 1]
0	0x3c379798	0.011205576
1	0x00000004	6e-45
2	0x3c002ff9	0.007823938
3	0x3c0930f7	0.008373491
4	0x3c207f2c	0.009795945
5	0x00000004	6e-45
6	0x3bfed2f2	0.0077766115
7	0x3c360b28	0.011111058
8	0x3c0d986f	0.0086423
9	0x3c3a337f	0.011364817
10	0x3c06d00c	0.008228313
11	0x3c233c81	0.009963156
12	0x3c25c8f4	0.010118712
13	0x3bb9a4d5	0.0056654015
14	0x3c3a22dd	0.011360851
15	0x3c09032c	0.008362573
16	0x3c89530b	0.01676323
17	0x3bb50c51	0.00552515
18	0x3c1d232c	0.009590905
19	0x3bdcab59	0.0067342934
20	0x3c059c6c	0.00815497
21	0x3bf39141	0.007433087
22	0x00000004	6e-45
23	0x3bf6a6b2	0.007527196
24	0x3c20925a	0.009800518
25	0x3bfaa062	0.0076485137
26	0x3c2b6850	0.010461882
27	0x3c39c285	0.011337881
28	0x3bf44972	0.0074550444
29	0x3c29a0fd	0.010353324
30	0x3bd3be08	0.0064618625
31	0x3c7c6387	0.015404589
32	0x3be0e60f	0.0068633626
33	0x3be2f19b	0.0069257743
34	0x3c0e2507	0.00867582
35	0x3bae8682	0.005326093
36	0x3c056705	0.008142238
37	0x00000004	6e-45
38	0x3c503eb6	0.012710264
39	0x3c1b8e8e	0.009494437
40	0x3bbb29e4	0.005711781
41	0x3bc8103e	0.006105452
42	0x3bec8966	0.0072185276
43	0x3bb121dd	0.005405648
44	0x3bbacbb5	0.0057005533
45	0x3c3e955d	0.011632291
46	0x3c298ea4	0.01034895
47	0x3c21358f	0.0098394295
48	0x3bf52603	0.007481338
49	0x3c2454a6	0.010029947
50	0x3c6d73ca	0.014492938
51	0x3bc5da14	0.00603796
52	0x3bb5171a	0.0055264356
53	0x3c0a635a	0.008446539
54	0x3bdb211a	0.0066872956
55	0x00000004	6e-45
56	0x3c1bc94f	0.009508445
57	0x00000004	6e-45
58	0x3c24717d	0.010036823
59	0x3c0f3550	0.008740738
60	0x3bac34e6	0.0052553294
61	0x3bfa2a3e	0.00763443
62	0x00000004	6e-45
63	0x3c15301f	0.009105711
64	0x3c1d6337	0.009606174
65	0x3c1a691e	0.009424476
66	0x3c1da889	0.009622701
67	0x3c27f4c3	0.010251227
68	0x3bf5e842	0.007504494
69	0x00000004	6e-45
70	0x00000004	6e-45
71	0x3c12f17e	0.008968709
72	0x3bdd1c60	0.0067477673
73	0x3c292547	0.010323829
74	0x3c017408	0.007901199
75	0x3c07db26	0.008291995
76	0x3c04f74f	0.008115604
77	0x3c11d962	0.008901926
78	0x3bfcb6c0	0.007712215
79	0x3bcfca02	0.00634122
80	0x3bdfe213	0.00683237
81	0x3c06c3cf	0.008225395
82	0x3c3338d9	0.0109388465
83	0x3c277f52	0.010223227
84	0x3be3f9a7	0.006957251
85	0x00000004	6e-45
86	0x3bedc3a4	0.007255988
87	0x3bbd40b0	0.0057755336
88	0x3c24b8e6	0.010053849
89	0x3c74be45	0.014937942
90	0x3c5a00ed	0.013305885
91	0x00000004	6e-45
92	0x3bf38f25	0.0074328356
93	0x3c152292	0.0091024805
94	0x3bce9783	0.0063046827
95	0x00000004	6e-45
96	0x3c0aea8d	0.008478773
97	0x3c2d236f	0.01056753
98	0x3c2b6428	0.010460891
99	0x3bb20397	0.005432557
100	0x00000004	6e-45
101	0x3c382bdf	0.011240928
102	0x3c51784e	0.0127850305
103	0x3bce32c9	0.006292675
104	0x00000004	6e-45
105	0x3bf3f79d	0.0074452893
106	0x3bd790b0	0.0065785274
107	0x3bfaa2f7	0.0076488215
108	0x3c05837b	0.008149023
109	0x3c2dde91	0.010612146
110	0x3c031711	0.008001105
111	0x3c018a42	0.007906498
112	0x3c15c6bf	0.009141623
113	0x3bfdba80	0.00774318
114	0x3bc09d94	0.00587816
115	0x00000004	6e-45
116	0x3c20e858	0.00982102
117	0x3bf7a8f0	0.0075579807
118	0x3c576e5d	0.013148871
119	0x3bd9cc83	0.006646694
120	0x3bd212ec	0.006410947
121	0x3c225ab5	0.009909322
122	0x00000004	6e-45
123	0x3c0fedd0	0.008784726
124	0x3c27bd1d	0.010237959
125	0x3c20bb20	0.009810239
126	0x3bcfb19b	0.006338311
127	0x3bd30eb3	0.0064409613

conv_b1_l0_bn_var f4 [1, 64, 1, 1]
0	0x3c911b93	0.017713344
1	0x3c25844d	0.010102344
2	0x3c4c77aa	0.012479702
3	0x3c892f79	0.01674627
4	0x3cbccfe6	0.023048352
5	0x3c81ebf4	0.015859582
6	0x3c663c07	0.014052398
7	0x3c97461d	0.01846605
8	0x3cb37ffc	0.021911614
9	0x3c6b0f8d	0.014346969
10	0x3c992956	0.018696468
11	0x3c6cf917	0.0144636845
12	0x3c389e62	0.01126823
13	0x3cf0ff7f	0.029418705
14	0x3d244c8d	0.040112067
15	0x00000004	6e-45
16	0x00000004	6e-45
17	0x3c10dcf6	0.008841744
18	0x3c919cea	0.017775018
19	0x3cbbc115	0.022919217
20	0x00000004	6e-45
21	0x3cbc46dc	0.022983007
22	0x3cd1a10c	0.025589488
23	0x3c26a0c1	0.010170163
24	0x3ccc6359	0.024949716
25	0x3c21569c	0.009847309
26	0x3c4180ca	0.011810491
27	0x3c8e59f3	0.017376876
28	0x3ce685c8	0.028139964
29	0x3c397d35	0.011321356
30	0x3c5866e5	0.013208126
31	0x00000004	6e-45
32	0x3c1da186	0.00962103
33	0x3c107937	0.008817962
34	0x3c554e04	0.013019089
35	0x00000004	6e-45
36	0x3ce53459	0.027979063
37	0x3c8c613c	0.017136209
38	0x00000004	6e-45
39	0x38ed17fc	0.00011305508
40	0x3cb4372d	0.021998966
41	0x3c6995d7	0.014256916
42	0x3cf54d57	0.029944105
43	0x3c7f8444	0.015595499
44	0x3cdac7d5	0.026706615
45	0x3cc7d95f	0.024395643
46	0x3d23ac2d	0.03995912
47	0x3c4c5edd	0.012473789
48	0x3cac8a84	0.021062143
49	0x3c1698bf	0.009191691
50	0x3c880184	0.016602285
51	0x00000004	6e-45
52	0x3c878423	0.0165425
53	0x00000004	6e-45
54	0x3cde465a	0.027133156
55	0x3c23e63e	0.0100036245
56	0x3c9677e1	0.01836771
57	0x3cc23d7a	0.023710955
58	0x3be41986	0.0069610504
59	0x397cb9a6	0.00024101752
60	0x3c7516d1	0.014959053
61	0x3c4f0a3c	0.012636717
62	0x00000004	6e-45
63	0x00000004	6e-45

conv_b0_l1_bn_mean f4 [1, 32, 1, 1]
0	0xaccd9798	-5.8432807e-12
1	0x3dd83305	0.10556606
2	0x3d071c58	0.032986015
3	0xbd30349a	-0.043018915
4	0x3bf39437	0.00743344
5	0x06341c86	3.3875193e-35
6	0x3a53f2c5	0.0008085187
7	0xbd7df54c	-0.06200151
8	0xbe191a07	-0.14951335
9	0x3db3492b	0.0875419
10	0xbd46a9c6	-0.048501752
11	0xbdefafd7	-0.11703461
12	0xbd28ed43	-0.041241895
13	0x8621b110	-3.041082e-35
14	0x3c4592e5	0.012058948
15	0xbca63008	-0.020286575
16	0x3c56c9fa	0.013109678
17	0xbd7b7fb2	-0.061401077
18	0x3d85888d	0.065201856
19	0xbc8b174e	-0.016978886
20	0x3e07dde9	0.13268246
21	0xbd59a8a8	-0.05313936
22	0xbd4e44e7	-0.05035868
23	0x3e34a170	0.17639709
24	0x3cc35340	0.023843408
25	0xbbbd1370	-0.0057701394
26	0xbde25014	-0.1105043
27	0xbab4082e	-0.0013735348
28	0x32afac17	2.0450939e-08
29	0x3b6ab837	0.0035815367
30	0x3d9e77cb	0.077376924
31	0xbd086768	-0.03330174

conv_b1_l3_bn_mean f4 [1, 64, 1, 1]
0	0xbe201b0c	-0.15635318
1	0xbc888529	-0.016665058
2	0xbd976383	-0.07392027
3	0xbdb5674e	-0.088575944
4	0xbd847ffa	-0.06469722
5	0xbd6137a0	-0.05498469
6	0x05ae1864	1.6371841e-35
7	0x3e460f3d	0.1934175
8	0x3df04102	0.11731149
9	0x3e87c6de	0.2651891
10	0x3d996a62	0.07490994
11	0xbd0b07c3	-0.03394295
12	0x3e044378	0.12916362
13	0x3da6594e	0.08122502
14	0x8512daf2	-6.905101e-36
15	0xbdaf7ff9	-0.08569331
16	0xbde8b04d	-0.11361752
17	0xbd09c2d0	-0.033633053
18	0x3db050f5	0.08609191
19	0x3ca07863	0.019588655
20	0x3cc61cdf	0.024183689
21	0xbe1a3469	-0.15059055
22	0xbd0f6329	-0.035006676
23	0xbde2ef1b	-0.11080762
24	0x06c41bb3	7.3767706e-35
25	0x3d89d3fa	0.067298844
26	0x3e512e98	0.2042793
27	0xbe6c9f78	-0.23107708
28	0x3e0b4af4	0.13602811
29	0xbda9d46d	-0.0829247
30	0xbd3777f9	-0.04479215
31	0x0540abd9	9.05936e-36
32	0xbdfa30db	-0.1221635
33	0xbdfa0a4e	-0.12208997
34	0xbd0ce1b2	-0.034394927
35	0x3e0360cf	0.12829898
36	0x3dc57fa0	0.09643483
37	0x3d072ab7	0.03299972
38	0xbdf09334	-0.11746827
39	0x3e4e176e	0.20126125
40	0xbe16ed25	-0.14738901
41	0xbdf7994f	-0.12089788
42	0xbdb2a8e4	-0.087236196
43	0x3dc678ee	0.09691034
44	0x3e038a93	0.1284583
45	0xbe50ebf0	-0.20402503
46	0xbc430e1a	-0.011905218
47	0xbd641470	-0.055683553
48	0xbd3e9b5e	-0.04653489
49	0xbda70141	-0.08154536
50	0x8566729d	-1.0835599e-35
51	0xbd63e225	-0.05563559
52	0x3c92ac1c	0.017904334
53	0xbddd4f7b	-0.10806175
54	0xbd80b335	-0.06284181
55	0xbe137d7c	-0.14403337
56	0x3e1c71a4	0.15277725
57	0x3e0eeb54	0.13956958
58	0x3d4cbbc7	0.049983766
59	0x3889b3c3	6.566152e-05
60	0x84dc0979	-5.173045e-36
61	0x3a3c4205	0.00071814685
62	0xbdbab88c	-0.09117231
63	0xbb3b7f60	-0.0028609857

conv_b1_l0_bn_mean f4 [1, 64, 1, 1]
0	0x3d407a97	0.04699191
1	0x3c8f53c5	0.017496
2	0x3d5bceec	0.053664133
3	0x3c288330	0.010285184
4	0x3da89014	0.08230606
5	0x3d03304f	0.032028493
6	0x3d260023	0.040527474
7	0xbd5fd141	-0.05464292
8	0x3c7728a7	0.015085376
9	0x3ca28898	0.019840524
10	0x3c03cf50	0.008045033
11	0xbd1bc32a	-0.03802792
12	0x3daa49a5	0.08314828
13	0x3d02b207	0.03190806
14	0xbdcb7cde	-0.09935926
15	0x0722aada	1.2237734e-34
16	0x85b637b1	-1.7135656e-35
17	0x3d35e7c6	0.04441049
18	0xbc767d27	-0.015044487
19	0x3d9b3a93	0.075795315
20	0x8492b00e	-3.4486116e-36
21	0xbd815dc6	-0.06316714
22	0x3d33d9ae	0.043908767
23	0x3cb47277	0.022027237
24	0x3e6699d9	0.22519626
25	0x3d345f7a	0.044036366
26	0x3d8c4089	0.068482466
27	0x3d9a1b64	0.075247556
28	0x3e06949b	0.13142626
29	0x3d6412c5	0.055681963
30	0xbca56491	-0.020189555
31	0x05ce6378	1.9408686e-35
32	0x3d8b1c4e	0.06792508
33	0x3d1b6bf3	0.037944745
34	0x3d2c260f	0.042028483
35	0x057b4e3c	1.1816333e-35
36	0x3d278ec9	0.040907655
37	0x3e08bd6b	0.13353507
38	0x865f2128	-4.1965998e-35
39	0xbaa28918	-0.0012400476
40	0x3e287e22	0.16454366
41	0xbd1f1d7f	-0.03884649
42	0xbdbcb636	-0.092144415
43	0x3c96b726	0.018397879
44	0x3d93ac2a	0.07210572
45	0x3db97317	0.09055155
46	0xbc85b29d	-0.016320521
47	0xbaf98b3e	-0.001903869
48	0xbcdbdae8	-0.026837781
49	0xbd41b2ae	-0.047289543
50	0xbc8b2393	-0.016984737
51	0x85feb46f	-2.3952326e-35
52	0x3dbfb8b7	0.093614034
53	0x05615cff	1.059653e-35
54	0xbd1af648	-0.03783253
55	0xbd9bb817	-0.07603472
56	0x3de55e44	0.1119962
57	0xbcd2b50f	-0.025721101
58	0x3d16feee	0.036864214
59	0x3b85bdb1	0.004081451
60	0xbd36d141	-0.044633154
61	0xbdce457a	-0.10071845
62	0x06b62635	6.851693e-35
63	0x06c2fc0f	7.3345056e-35
